invariants.pth (torch, 121826 bytes, 20 tensors)

fc1.weight f8 [64, 100]
0	0x3faa560287f3a670	0.05143745336119998
1	0xbfc6cbe60c09c12a	-0.17809749210165055
2	0xbfc1dce466deaa96	-0.13955359480799662
3	0xbfc35538e51cf46b	-0.15103827654994303
4	0xbfa402531b15dcda	-0.039080235534976374
5	0xbfbe15d72f0cdd28	-0.1175207605236791
6	0x3fa39d41d8fbeca0	0.03830915235263288
7	0xbfb8b51ce0fb9ecf	-0.09651356213327776
8	0xbfb2ef362f869272	-0.07396258030218819
9	0xbfc138078b5d0970	-0.13452238373617886
10	0xbfaa8be918fbd817	-0.051848682689453245
11	0xbfbcfb41e29b0dc7	-0.11320888311734399
12	0xbfd1be529d7f42fb	-0.2772413766916057
13	0xbfc0e4f8dd73396b	-0.13198767483704485
14	0xbfc20cf749c269fd	-0.14102068997893005
15	0xbf75b139d4553028	-0.00529596891039933
16	0x3fa66ecf8d2b4942	0.0438141689134164
17	0xbfb43c83da6cd6a9	-0.07904838640828395
18	0xbf86e903f9757ea0	-0.01118662934339848
19	0x3f9565d9d340a580	0.02089634277232255
20	0xbfc22111c82932da	-0.1416341998432447
21	0xbfc0356a3f9dcc7f	-0.12663009744901285
22	0x3f855cef870c735c	0.010431166943413998
23	0xbfbd11502f3fb7f7	-0.11354542878663652
24	0x3f87ae16dacb5cb5	0.011562517692637145
25	0xbfa1f14ff09fec72	-0.035044191477901956
26	0x3f8424ece26a58e6	0.009836054477358091
27	0xbf94593525ffa58d	-0.01987155002999468
28	0xbfbcf4c7545864af	-0.1131100254937276
29	0xbfb9a161e43abaa0	-0.10011874982840618
30	0xbf7484ca9b6f3872	-0.005009452280274928
31	0xbfbd74e8a44ca9b9	-0.11506513606278802
32	0xbf9f97e5e427d73c	-0.030852882433428194
33	0x3fb8f122750717a2	0.0974294219696206
34	0xbf8aca34527c8a98	-0.013080986754691978
35	0x3fa22a7871ad3e15	0.03548027408271196
36	0x3fb3689ed36e1f03	0.07581513082379492
37	0xbfa6c3e65232d9a9	-0.04446334603692332
38	0xbfcd2cb39ab1c96d	-0.22792668393556018
39	0x3fa60bda2adf7087	0.04305917523717633
40	0xbf640a94d4ad9453	-0.0024464518405005547
41	0x3faf4730395c12e0	0.06108999920073699
42	0x3fd2ccfef17e5274	0.29376195510238934
43	0xbf8ecec0efb6d244	-0.015042788806433845
44	0x3fa16915bacb7e86	0.034004859020339714
45	0x3f58122896543446	0.0014691730842202474
46	0x3fcc817fba5f9891	0.22270199394478543
47	0xbfc14fc6569b3c8e	-0.1352470324404504
48	0xbfb57b329169f2b0	-0.08391109514372874
49	0x3f9e80a20af07079	0.02978757087485959
50	0x3fc31299e8055758	0.1490051634706855
51	0x3fb1260c57e4c982	0.066986819704459
52	0xbfa94343aa4fcf96	-0.049341311016092224
53	0x3fc4af519aa267b7	0.16160030413158008
54	0x3f1116f74b9b2ac5	6.519207354497697e-05
55	0x3fc58cb7d44da7b4	0.1683568750989345
56	0x3f9b1e1861fbe66e	0.026481991749255966
57	0xbfb216f4fe17e518	-0.07066279605341597
58	0xbfbc3d60655a5f69	-0.11031153177679943
59	0x3fbc4525920e15fc	0.11043009582325419
60	0x3fac3af44cbe08c3	0.05513728558345712
61	0xbfa3a6f8ea8cd3f5	-0.038383272773366096
62	0xbfbe00686fcbebb8	-0.11719372491272295
63	0x3fbc3c5bd1d700c3	0.11029600022357315
64	0x3fbe68fa38697ad3	0.1187893283581432
65	0x3fba003fabf4a9a2	0.10156629512918028
66	0x3fae2b7f493794f7	0.0589256073833812
67	0xbf9a7bf4b5b3d233	-0.02586347922347638
68	0xbf95b93fdf4f96a2	-0.02121448326570053
69	0xbf9612718337531c	-0.021554731019779103
70	0x3fcc80eca8a5afae	0.22268446192481178
71	0xbfa60e11e9b6881e	-0.04307609537069389
72	0x3fb72e84da0e6c8b	0.09055357288018422
73	0xbfd53307677b3dd5	-0.331239558273379
74	0x3f9a6d71d57bc3e2	0.025808123259540745
75	0xbfb81b905d843460	-0.09417059214702439
76	0x3f9a34cac92fe69c	0.025592011003004886
77	0x3f7b10709511c182	0.006607475065820602
78	0xbfa6cba7b09e6c57	-0.04452251463882167
79	0x3fda36793d51c520	0.40957480419372594
80	0x3fb02b98cbb8eca3	0.06316523526850175
81	0xbfc19c70b6c2de94	-0.13758667873274943
82	0xbfc228d2d713c0e1	-0.14187083722891372
83	0x3f981f376b8307d7	0.02355658143711267
84	0x3fc1302ce257e269	0.13428269435805198
85	0x3fbdc044d96bd896	0.1162150412381798
86	0xbfc7071cee4dd2cc	-0.1799045718759288
87	0xbfc3d4f1245a18ed	-0.15493597292897424
88	0xbfa9719ac8e0ad15	-0.04969485952491418
89	0xbf4b108944890818	-0.0008259458782691213
90	0x3fb6e904116d9142	0.08949304032791353
91	0xbf95e4b27dda6cb5	-0.02138022320887663
92	0x3fb60f61ca7db1ef	0.08617221063258972
93	0x3fb38deb68c5dd90	0.07638427074367926
94	0xbfa739c5f624a56b	-0.04536265020062554
95	0x3fb0844e7dc9ecbd	0.06451883860602244
96	0x3fb0eb0145b2cdf8	0.06608589126226849
97	0xbf6581cdfc074c1f	-0.0026253722319125174
98	0xbf79b12a6aa7c364	-0.006272473993235692
99	0xbfa830334bf5ebb6	-0.04724273969892272
100	0xbf8ed18772a57aad	-0.015048082529287876
101	0x3f88b3430b63fd3c	0.012060664925683022
102	0xbf7a6716f95a5758	-0.006445970289538604
103	0xbfb3557a443b8e62	-0.0755230347236249
104	0x3fb06c647700a514	0.06415393739066061
105	0xbfb4467b8e4cf505	-0.07920047973762585
106	0x3fa8055dc5ade85e	0.046915941601540764
107	0x3fa84f56027d2e5b	0.0474802854574505
108	0xbfc108a1fc017a89	-0.13307595066995173
109	0xbfd053229c64469a	-0.2550741698515623
110	0xbf8ac476fcee152f	-0.013070039361773837
111	0x3fb2d5c07142b12a	0.07357409253262817
112	0xbfd87ccad12cd468	-0.38261671473748615
113	0xbfa17d2960ba3497	-0.034158032472171466
114	0x3f8004d49aaf1cff	0.007821713419515762
115	0xbf9f8bf441068454	-0.030807320088232906
116	0x3fb8b50136668eb1	0.09651191309108743
117	0x3fabbb81d837e715	0.054164941448062866
118	0xbfc1898b08081c88	-0.1370099820344175
119	0xbf86dcf7b3b49b16	-0.011163649722744345
120	0xbfb615eda77629f3	-0.08627209986131117
121	0x3fba6b7961f8fe3c	0.10320242540273566
122	0x3fa62b1be13169a9	0.04329764484346594
123	0x3fad31a304f16685	0.057019323686017954
124	0x3f9b160a4c12f679	0.026451264279549556
125	0xbfc6393dec79ede5	-0.17362188383763946
126	0x3fa477e2a163ec22	0.03997715206238463
127	0x3fc5ca8ef52a7967	0.17024409266464177
128	0xbfc0cd271a749c86	-0.1312607649972259
129	0x3f63a6ced0a716fe	0.002398876128810622
130	0x3fa3c6965523e868	0.038624475377177
131	0x3fa3a4c792b9d281	0.03836654344641933
132	0xbfb825f194a831bd	-0.09432897452661045
133	0xbfa57e33d1eb9353	-0.04197847306730886
134	0x3fb4206fe2b4f70b	0.07861995014988225
135	0x3fb8fb86ef284c3c	0.09758799876026186
136	0xbfc45109f7d4931c	-0.15872311211673995
137	0x3fac7c7e03bcb964	0.05563730044956364
138	0xbfb14e2b5f85567e	-0.06759902078678157
139	0xbfaad600442b0767	-0.05241394836549667
140	0xbfb224c4129307c0	-0.07087350324130082
141	0x3fb268bc6d313f77	0.07191064515904864
142	0xbfce1e12b9b4eacd	-0.23529275958738652
143	0xbfb3205858334c40	-0.074712296994492
144	0x3fa78b5d6ace47dd	0.04598514488965553
145	0xbfa8d70db50df2d7	-0.048515728331926126
146	0xbf698b66f5f57999	-0.0031182299568818903
147	0xbfc215d71faade8a	-0.14129151388418776
148	0x3fafd65dd3545a35	0.06218236164766148
149	0x3fc66c6e772045f9	0.17518406693174862
150	0x3f976fd034793b88	0.022887471392376152
151	0xbf963a266cf9a624	-0.021706200028722603
152	0x3fb5b2887004a88d	0.08475544676608333
153	0x3fb11001e8cd9a5b	0.0666505044333489
154	0x3fa01c35f105c75e	0.03146523062868199
155	0x3f90cbf0ea82042b	0.016402973473763332
156	0x3fa92407e6b0ce9c	0.04910301867530828
157	0xbfaccb15e322d49c	-0.056236919380731026
158	0x3fa78ee1a7f4a120	0.046011974098578046
159	0xbf95078d142cb338	-0.020536617618904546
160	0x3f9101fb79be3364	0.016609124475098894
161	0xbfab700b43e771d5	-0.05358920291812167
162	0xbfaf4bc945554f3c	-0.061125077928095156
163	0x3f88c652e6cd5139	0.0120970226941287
164	0xbf708b3a57fbde5b	-0.004039028077151475
165	0xbf6d2a0281e9afae	-0.0035600708936751246
166	0xbf994bdf628f02e9	-0.024703493490735893
167	0x3fbad2f579df2108	0.10478147721653752
168	0xbfa55c0b126840f0	-0.041717859265306134
169	0x3fab6036c415c558	0.05346842902771226
170	0xbfc5a8295888e61d	-0.16919438193308248
171	0x3f8644399a5fd394	0.010872316383009374
172	0x3fb22c4878c2a763	0.07098820636988772
173	0xbfdfa29cdd08d048	-0.4943000944651925
174	0xbfbe4eea52fa04c3	-0.11839165235325581
175	0xbfbe7f5d52ba5023	-0.11913092870446511
176	0xbfc3165028692c68	-0.14911844227967497
177	0x3faec00782ef1d60	0.06005881760898535
178	0xbf99987a070538b0	-0.024995714834681493
179	0x3fab7392394f592f	0.05361611318191916
180	0x3faff4a26867914b	0.062413287396142346
181	0xbfaad94fed05bf36	-0.052439210589794547
182	0xbfb2736f3f27962e	-0.07207389156209196
183	0xbfb09c4590e99750	-0.06488451755430202
184	0xbfb67fec532866b7	-0.08788945226879262
185	0xbfc21b32d13d0370	-0.14145503250804436
186	0xbf9af267a3440f3e	-0.026315326061207893
187	0xbfb3a72646c5bf13	-0.07676924922793331
188	0x3fc15b5312469020	0.13559950249066421
189	0x3faedeb367acd49a	0.060292822271017246
190	0x3f9a8bb481d110d1	0.02592355768526106
191	0xbf6e1fd546e2fc13	-0.0036772885860894083
192	0x3fc1518fd5ce8b67	0.1353015703180873
193	0xbf7b012fa2e96ae6	-0.006592928008638954
194	0xbf94c78e4a7d214d	-0.020292495056567095
195	0xbfca7762765c458b	-0.20676832942312404
196	0xbfc1d8f146df6903	-0.13943305931645264
197	0x3f842e9ecfddf70b	0.009854546278571094
198	0x3f77ac888d3748a4	0.0057797750518650305
199	0x3fa78d1a958f4b8b	0.045998411900334345
200	0xbfa532aabf0b7495	-0.04140218336190419
201	0xbf859ddd650118a9	-0.010555009503274997
202	0x3fbe8c750f5c1bdc	0.11933070778842086
203	0xbfbe7fb19e414f89	-0.11913595307970416
204	0xbfd33b8ee059c1e4	-0.3005101385997746
205	0xbfaf2e6b79316b23	-0.06090103010565986
206	0xbfa94cd9e92c6e38	-0.04941445323330779
207	0x3f98fc2cb66b3635	0.024399469980201444
208	0xbfa8b74277bed2b0	-0.04827316009269589
209	0xbfd6d08fd527cb4b	-0.35647960487329006
210	0xbfa13026e443e465	-0.03357049499931789
211	0xbfc3daa53de41f32	-0.15511003038431564
212	0x3f9b89a99ca3900d	0.02689232843921734
213	0xbf6c8fe793c708b8	-0.0034865878098751767
214	0x3fbd1047d3473e25	0.11352967174683977
215	0xbfc5a9964a9ecf9f	-0.16923788684436844
216	0xbf7cb07b4f5b6695	-0.007004243545191043
217	0x3fadbc41b5449109	0.058076909425183905
218	0xbfad689675012176	-0.057438566000714994
219	0xbfbbae39c6c4b60d	-0.10812722304100238
220	0x3f9f35cdd7fd92f0	0.030478683765426007
221	0xbfa15a5a30c94bfd	-0.03389245839630204
222	0x3f79285fd2e9291d	0.006142019569390447
223	0xbfd6828f0fb71ab9	-0.35171867880528
224	0x3fbbefb80ad0d28b	0.1091265703588055
225	0xbfc8d787d0e22289	-0.1940774698198491
226	0xbfa6794266d24a47	-0.04389388566155055
227	0xbfb72dea7f4f51f3	-0.09054437263632291
228	0xbfc7fb4d5d8385fc	-0.18735663477040976
229	0x3fcb1385ba945764	0.21153327570271607
230	0x3f8d98c620887542	0.014451549403981748
231	0xbfa78d132ad5dd81	-0.04599819085972979
232	0x3f8f9f07f49a4371	0.01544004645555372
233	0xbf97a4f7661c09ed	-0.023090234381934072
234	0xbfa8d3bc7743a112	-0.048490418966880125
235	0xbf9ffea0ef0b8ac7	-0.031244768705515093
236	0xbfc681b0ff25ffd2	-0.17583286722583452
237	0x3f8fb666b819a1ca	0.015484621518411585
238	0xbfc3d774f7c7333c	-0.1550127229551438
239	0xbfc8292e20db5542	-0.18875671963057
240	0xbfdc36f8e71a0fd1	-0.44085524147544414
241	0xbfa3d6bd23dedaea	-0.03874770224449782
242	0x3fb77cd6ee45ee1b	0.09174865071502618
243	0x3f91a2781ecd9299	0.017221333389346147
244	0xbfc330ce295a1f98	-0.14992692011969377
245	0x3f81909f9437b3d1	0.008576628409139449
246	0xbfa7b58ed89b54ac	-0.046307052556281064
247	0xbfd08834ad557f17	-0.25831334044595294
248	0xbfa2e3b028bb43eb	-0.03689337250910526
249	0xbfb09b0571efa1e5	-0.06486543685571851
250	0x3fb5088f51b86113	0.08216186280367692
251	0xbfc29742ad4a2b3a	-0.14524110280430041
252	0x3fc0b5aab81f89d3	0.13054403295889347
253	0x3fb473ac5bf5a1c9	0.07989003415207842
254	0xbfb7a372ff698d2a	-0.09233778701450449
255	0x3fac122e6ecef794	0.054826212908195476

fc1.bias f8 [64]
0	0x3c555b69596edce5	4.631077694391716e-18
1	0x3c63b60808e89158	8.548309673528097e-18
2	0xbc1f6ff7705f84ab	-4.2605580208681673e-19
3	0x3c47d664c202ec9d	2.584464211964816e-18
4	0x3c7f7d99b51be797	2.7313764652523168e-17
5	0xbc71ba97154430ad	-1.537734162636543e-17
6	0x3c70bb71fee362fa	1.4512877172320757e-17
7	0x3c7f28a23674f7f5	2.702588601670512e-17
8	0xbc716ad224d2b7d1	-1.5107072746007408e-17
9	0xbc6b89d67dbbe978	-1.1942889873748347e-17
10	0xbc4a11234238fbd3	-2.8261837591103257e-18
11	0xbc71a8a7ba90253d	-1.5316575558039057e-17
12	0x3c415a00e8fad1cd	1.8812616814482365e-18
13	0x3c61430e02bd5af7	7.486169902880903e-18
14	0xbc4636bdeccf27fc	-2.4084288736591327e-18
15	0x3c3b474844cd6b85	1.4787675469859137e-18
16	0xbc6288aa70a1d295	-8.037776480653923e-18
17	0x3c5594c66d1af7fd	4.6796665378314494e-18
18	0x3c6eccede2593769	1.3357589697718843e-17
19	0xbc587708158c3bf5	-5.304994096931941e-18
20	0x3c5192fa7c74507e	3.8107829858972104e-18
21	0x3c6f124e0fb92087	1.3475116692057611e-17
22	0xbc81421bccc575f7	-2.993826834466464e-17
23	0xbc6aa414be71ac41	-1.1553666672309578e-17
24	0x3c7c03d4bde89bd3	2.4299108673726067e-17
25	0x3c616365285a8f58	7.540956701512707e-18
26	0x3c786e243e943e86	2.1189855899808966e-17
27	0x3c25575eee00631d	5.784568858572515e-19
28	0xbc6dd3919e5dafe3	-1.2935156727747977e-17
29	0x3c5db3f03027ad3e	6.440786213751119e-18
30	0x3c7928370b563749	2.182029722630767e-17
31	0x3c4976e6b16880c8	2.760862024657258e-18
32	0x3c6146d09756d33c	7.492539726081934e-18
33	0x3c7fd882e817854d	2.7621782878611187e-17
34	0xbc595e22fc93e553	-5.500747720523225e-18
35	0x3c665638d175e92d	9.68704477614393e-18
36	0x3c4f8e8ed43df92f	3.4214023648364016e-18
37	0x3c43ae4b1c4ded5d	2.1338002541383836e-18
38	0x3c4270fb87eb7b6a	1.9994138785491063e-18
39	0x3c5bf98ee4f82e31	6.066075733236817e-18
40	0xbc31bf13e63a0fb1	-9.620341301786283e-19
41	0xbc1a8f6c15841d6b	-3.5995841428095925e-19
42	0x3c440b757c0803b6	2.1732573879777777e-18
43	0xbc5552fdc84fe6f6	-4.623945521867319e-18
44	0xbc586fbd9130c5e9	-5.298818310162226e-18
45	0x3c7ed8f0c041ba7a	2.6755874919073126e-17
46	0xbc20026ce86fa7a4	-4.339376705049494e-19
47	0xbc15cff4144cf4cc	-2.9561203344861557e-19
48	0xbc66081b1c40e835	-9.554711046377793e-18
49	0xbc09dc5ddb09df5b	-1.7523964540682592e-19
50	0xbc552da8c4632a8c	-4.592324010684437e-18
51	0xbc73eee4301738f2	-1.7289268428671927e-17
52	0xbc46697186cc36b8	-2.429901823127181e-18
53	0xbc84d574e8c3dc94	-3.6140908223436914e-17
54	0x3c373275069dff14	1.257517211711918e-18
55	0x3c656697897d3323	9.28109575830702e-18
56	0x3c61a824f2647d4f	7.657422336895518e-18
57	0xbc6c570fd7e888e9	-1.229055290743316e-17
58	0xbc70f9d39cc21fda	-1.4724233289241806e-17
59	0x3c7a079010e410a5	2.257702880759091e-17
60	0x3c748392628b792f	1.7793017412687924e-17
61	0xbc5245fd53c8002e	-3.962411283935578e-18
62	0xbc7dfc52950c2252	-2.6008392579029616e-17
63	0xbc82fdb07e938d76	-3.294408902172579e-17

fc2.weight f8 [64, 64]
0	0x3f902051c055fd3e	0.015748288501979284
1	0x3f9481c472060d62	0.02002627321190909
2	0xbf9e326e866961d3	-0.029489256814800257
3	0x3f78ae1c01fadfbd	0.006025418667995494
4	0x3fb1ad27613083d0	0.06904836771765521
5	0xbf9bbd22002b05a8	-0.027088671932465808
6	0xbfbba9748bf09a0d	-0.10805443207264194
7	0xbfa28dfb4904a876	-0.03623948351226229
8	0x3fa470b3cdb9776b	0.03992235075268876
9	0xbfb5f9e899f22c6c	-0.0858445525974944
10	0x3fc4595a52f183f3	0.15897683191272413
11	0x3fb051d8e948bc1b	0.06374889083302586
12	0xbfbe3240abb7a917	-0.11795429413146895
13	0xbfaaa0213124840f	-0.05200294232259505
14	0xbfc02bb7c7703dff	-0.1263341640301263
15	0x3fa066ed8e9dc463	0.03203527799531327
16	0xbf90877362b07eb7	-0.01614170350887775
17	0x3fb20622f20ab22f	0.07040613564704111
18	0xbfb3e0452c0948ac	-0.07764084172348146
19	0xbfae989eb6292b2d	-0.059758147941997165
20	0xbfb316dd1ab03e71	-0.07456762219976
21	0x3fb8d32b1eb57147	0.09697217464185313
22	0x3fb5521d93153a98	0.08328423348323566
23	0xbf7d0f8fd9b7fd04	-0.007094919124482905
24	0x3f756283d95ce39e	0.005220904384082651
25	0x3fb93cd4efbe05b1	0.09858446934779043
26	0xbfa834796e6ebedc	-0.047275347452680555
27	0x3faa458138c407ee	0.05131152933064685
28	0xbf7e6acf20847b7b	-0.007426079835822881
29	0x3fcb56101e0b51d7	0.21356393305781182
30	0xbfb38400054a70ce	-0.07623291138810659
31	0x3fbd46852fb7c206	0.11435730376229722
32	0xbf828cf23783f1c0	-0.009057895964809215
33	0x3fc60ac8a5ba6253	0.17220409481230323
34	0x3fb75dc00aaef401	0.09127426396203477
35	0x3fa21a86c0050b85	0.03535863012304844
36	0x3faa803c0bdd9edf	0.05175960202069318
37	0xbfaf2bbb2efa508c	-0.06088051746806497
38	0x3fac0a785c9cb1e8	0.05476738100546524
39	0x3f719a5c72dd6c52	0.0042976008679388045
40	0xbf99285c7954ba43	-0.024568028359846627
41	0xbfb0725008a861a4	-0.06424427234049418
42	0x3fb9d23cc90ddd48	0.10086421879338048
43	0xbfb6f3462e4ec34c	-0.0896495688491658
44	0x3fac3fc7950d9360	0.05517409986968036
45	0x3f706acbd3eb3d5a	0.00400809879529559
46	0xbfa59ae5d184d8d1	-0.04219740088085334
47	0x3fb14e7b5641b29e	0.06760378700136946
48	0x3f6afbf67e3816b7	0.003293973380780492
49	0x3fbde57298599ea4	0.11678234309658336
50	0x3fa1f4ca3d7d16a1	0.03507072449296556
51	0xbf8391400cdada94	-0.00955438651304278
52	0xbfb0c99f1e491adb	-0.06557650079148962
53	0x3fc4e3b899f9d901	0.16319949644429957
54	0xbfb39d05710d4c2f	-0.0766147042279932
55	0x3f9685d67d5aa93e	0.02199492588139517
56	0x3f7c5910278a1ac7	0.006920874694179963
57	0x3f9ad4d283719b48	0.02620247771519793
58	0x3f9ad68aea6b1130	0.026209040220025404
59	0xbfc2a6b313ad8ad2	-0.1457122655948156
60	0xbfbfe6c4c4c6e2db	-0.12461499981044304
61	0x3fba369435e21025	0.10239530864242903
62	0x3fb1b59ff01655eb	0.06917762385850039
63	0xbfaa56b8545bacd4	-0.05144287137758288
64	0x3fc33537423fb480	0.15006151900107412
65	0x3fbba01c08200c95	0.10791182707184739
66	0x3facf22903f4fcdc	0.05653503583243388
67	0x3fbb4c12662f9090	0.10662951464434145
68	0x3fb1de0ad425ce7e	0.06979434661280412
69	0xbfaea5279cbd8550	-0.059853780635203635
70	0xbfbd7b7aaee91d0f	-0.1151653935458976
71	0x3f80f636e44b3f73	0.008282116739252143
72	0x3f9ed120e29aa610	0.030094636755768234
73	0xbfa43721fc6716f6	-0.03948312955939841
74	0x3fbdc6fab1157c4c	0.11631743262613375
75	0x3fb84789d2e76bed	0.0948415889646836
76	0xbfbba0f0f7dac7af	-0.10792451907289434
77	0x3fa4721035c0f370	0.03993273407147668
78	0xbfab35f898aff4c1	-0.05314614166125287
79	0xbfa377b460d1b201	-0.038022648638477825
80	0x3fc04f9ea66a34af	0.12742980123258493
81	0x3f981d73a0b39eb3	0.023549849208307005
82	0x3f50af45d17ab4d4	0.0010183507746817548
83	0xbf71bb7b93ab40c4	-0.004329188081740824
84	0xbfaf13ab0f964ba4	-0.06069693150779834
85	0xbfbb8f906f5d4f4b	-0.10765936583385131
86	0xbfa0f309db954d59	-0.03310423665484547
87	0x3fc0088054129d85	0.1252594385634717
88	0xbfa6297242580d01	-0.043284960363985554
89	0x3f90f0ffcfd69ff1	0.016544339237640263
90	0xbfc8b300d805ec63	-0.19296274707798763
91	0x3fb2aa1e18395bb0	0.07290828792007065
92	0xbfb092e0c7203416	-0.06474118100614165
93	0x3fbd40c173ac57be	0.11426934312871048
94	0x3fa732b9a1258768	0.04530887691613722
95	0x3fb499fd7128830a	0.08047470104839874
96	0x3fb496f4a37472d1	0.0804283999500044
97	0x3f95522622708ec9	0.020821185924559758
98	0xbf8cc879692a8747	-0.014054249307551848
99	0x3fbe68a2e051416a	0.11878412224291926
100	0xbfa63025f9db27b1	-0.043336092710503656
101	0x3fac28a137ecf71d	0.054997480465756456
102	0xbfbb4801563500bf	-0.106567462488786
103	0xbfc482d1a90c97e8	-0.1602422786174309
104	0xbfab8ebd9defc239	-0.05382340004860393
105	0x3fc18a7d5bc8ebd7	0.13703886968309462
106	0x3fb43162cf5feea3	0.07887857020244353
107	0xbfba7ed923c32a3e	-0.10349804995636533
108	0x3f741b9aeb18d774	0.004909138822361093
109	0xbf99e62f70b1d440	-0.02529214978536154
110	0xbfc382bfd6ab9071	-0.1524276540941432
111	0xbfa94ba66c1361d2	-0.04940528935702883
112	0xbf82c7224b2cc891	-0.009168880385548557
113	0xbfb3edc61dc5081a	-0.07784689165876593
114	0x3f92dd852f946ccd	0.018423157719649908
115	0xbfc413fb1a48b42a	-0.1568597677554931
116	0xbfc3150ffaf34028	-0.14908027413776037
117	0xbfaff4348dd51f58	-0.0624100134978664
118	0x3fa1bf3f9a587e5f	0.03466223486998098
119	0x3fb2d5df40b61005	0.07357592897284355
120	0x3fa9e5216f53e1a4	0.050576252784540615
121	0x3fb78b02d503e22c	0.09196489048543616
122	0x3fc1256699db9994	0.13395388138378606
123	0xbfc5bf5207150809	-0.16990113588150305
124	0xbfb0b240afd8b86c	-0.06521992009285932
125	0xbfb13f264eec2b19	-0.06736983706302303
126	0xbfae1ac9c68fb680	-0.058798127640199205
127	0x3fb8675c62a22e26	0.09532716186566201
128	0xbfb4c7f9c36b8d0e	-0.08117638607977914
129	0xbfb1dc32542204f3	-0.06976618341470324
130	0x3f88adf9ee27c7d8	0.01205058343927938
131	0xbfc326bc2546ccc1	-0.1496195966734373
132	0xbfa129ccc9545995	-0.033522033287385934
133	0xbfa14fc0cb3976e8	-0.03381159287230934
134	0x3fb843a147771c50	0.09478195185430249
135	0xbfc0425ee6eddada	-0.12702547336421938
136	0xbfb5f4a95a4eaf37	-0.08576448874253804
137	0xbfb6b180c2bf5996	-0.08864598040177038
138	0xbfc0010205eaf523	-0.12503075875239586
139	0xbfc3a947166964f2	-0.15360344499894257
140	0xbfb11db47e11f411	-0.06685951307186168
141	0xbfc7bb497dc0c322	-0.1854030479458056
142	0xbf631adfa6853e68	-0.0023321502850775395
143	0xbfc7e39a513a184e	-0.18663338628920417
144	0xbf90db72af24b061	-0.016462127628230742
145	0x3fc4cee635f7593e	0.1625640643603194
146	0xbfb6544ab7c4f8c1	-0.08722369181211588
147	0xbfa5b9c2cfa37579	-0.04243286881112857
148	0x3f88f61b74d5bb0c	0.012188162329690687
149	0x3fa9f6726fceb74d	0.05070836653554398
150	0x3facac2a6f4c8184	0.05600102051380687
151	0xbfbec818ad449c76	-0.12024072866607746
152	0x3fb9095ce5a58a9e	0.09779911619765833
153	0x3fa919d732ce9135	0.04902527327729659
154	0x3fa8690609b45e24	0.04767626636947522
155	0xbfb64efeebee1b4b	-0.08714288005840591
156	0x3f616539b0fa71fb	0.0021234633239386436
157	0xbf96dabdfea5984d	-0.022318810145769686
158	0x3fa69a9a03f0d3b5	0.0441482667742216
159	0xbf884fe35110875f	-0.011871124183077062
160	0x3fae7480169a4804	0.05948257709418672
161	0xbf876c0c6dbccb3a	-0.011436555003091809
162	0xbfbb633a6e0e586b	-0.10698285281100232
163	0xbfc3a2c109b62f80	-0.15340435957147847
164	0x3f7748823bab2dd9	0.005684384081813453
165	0xbfa97eaa4f6a0c13	-0.0497945043507785
166	0xbfc4511a28278f9c	-0.1587250419680658
167	0x3fb28597b356993b	0.07235096100211973
168	0x3fab5dadcf0c5976	0.05344908859676682
169	0x3f9fe38d4564e9f3	0.031141478882298967
170	0xbfc7b483f60e4204	-0.18519639505804275
171	0xbf49d46ee7b0c9d8	-0.0007882634666940792
172	0xbfaa1045063bf804	-0.05090537739850734
173	0xbfabb0b399d994df	-0.05408250096369626
174	0x3fc0a6d595d39fe5	0.130091379315899
175	0x3fb78aded48dda41	0.09196274461087574
176	0xbfb50340f98460e4	-0.08208089915968092
177	0xbfa4fc17ee3c8466	-0.04098582060965654
178	0xbfbb165f57f49e35	-0.10581012627937343
179	0x3fc1e165f0c36f6a	0.13969110733057316
180	0x3fa258bebb039c81	0.03583332093131109
181	0xbfc1b90409533cdb	-0.1384587331326433
182	0xbf9645842909f5cb	-0.02174955845338448
183	0xbf8db6e638b17046	-0.014509008984696103
184	0xbfc303d2e1ae3ba0	-0.14855419177589813
185	0x3fabdbc58256fd85	0.05441109863340458
186	0x3f8a8c3db6a6f702	0.012962801109889014
187	0x3fbd4716adf847e9	0.11436597583113407
188	0xbfb2186b0d09d90f	-0.07068509167024593
189	0x3fc7ba34f0b4b92a	0.18537008050174936
190	0xbf8bd841872511f4	-0.013596069275657797
191	0x3fb25588d9bf66e6	0.07161765400033068
192	0xbfb453aa03d38357	-0.07940161317266124
193	0x3fb048f0870e9e89	0.06361296937267914
194	0x3f978811a8d4ca38	0.022979999475135154
195	0xbfc38c5e860becd5	-0.15272122903102195
196	0xbfb493f6e7e387fd	-0.08038275872561935
197	0x3fc28ffdd896bb79	0.1450192744791499
198	0x3fa14167944f3698	0.03370212254922683
199	0x3fb34a773c0d6248	0.07535500732536449
200	0xbf7eea147f79ac23	-0.0075474549008545415
201	0x3f8ec907383c496b	0.015031868365927811
202	0x3fa0a8051955ab63	0.03253189024220295
203	0xbfb14bbda52e589e	-0.06756196291675784
204	0xbf77e64b729a1b53	-0.005834860532224112
205	0xbfae6bf0e997692f	-0.059417274965840476
206	0x3fbf4239fae7bd7b	0.12210428596130456
207	0xbfad42a3916ef1a1	-0.05714903974828479
208	0xbfc14d937f8fb55b	-0.13517993668157655
209	0xbfaec478ab947501	-0.060092707581342004
210	0x3fc2019536aa3672	0.14067330521759264
211	0x3fa8e1f974f47c88	0.048599048163162684
212	0xbfa3fe0c2d11e73b	-0.03904760408563709
213	0xbfc1984a4a57cae4	-0.13746002798105572
214	0xbf4a92425533f20f	-0.0008108924761525709
215	0xbfa8cfdc844912cd	-0.04846085657894648
216	0xbf9d7579cea16f62	-0.02876844714806682
217	0x3fa9281a8cc67041	0.049134092030016514
218	0x3fc43d6f84b70240	0.1581248662969461
219	0x3fb127ff988ada0e	0.06701657747439801
220	0xbfc54e86adaa55ee	-0.16645892600779127
221	0xbfb1d4f139fc4465	-0.06965549150142321
222	0xbf9d5d0a97cbfe44	-0.02867523719305455
223	0x3fa47d2ac986aa16	0.0400174494746645
224	0xbf7c92a3f1526b56	-0.0069757846842105255
225	0xbfb2a9f2d1f6b84a	-0.07290570856159309
226	0x3f83fd4180e89f3a	0.009760390993576718
227	0xbfb416e554abedc4	-0.07847436253717094
228	0x3fbb2f190f2e341e	0.10618740673653845
229	0xbfb5267ec5b29290	-0.08261864019966425
230	0x3fa8ae882e2e78c5	0.04820657314051994
231	0xbfa048411b0001fc	-0.031801256700422414
232	0x3fb38187edef3d20	0.07619523581455612
233	0x3fae446762543a6f	0.05911562991433505
234	0x3fc0d526c49b35c7	0.1315048656455657
235	0x3fa94c483b22c609	0.04941011163590409
236	0xbfc5b3c21e8bf345	-0.16954828731095453
237	0x3f815de987a48111	0.008479904605849716
238	0x3fa30b1558d0bd1a	0.03719393452808557
239	0xbfb453652cc29263	-0.07939750998282018
240	0x3fc613b19007e9a1	0.17247600109824382
241	0xbfa2dfae5869118e	-0.036862800876892185
242	0xbfb3aaf6c100a92e	-0.07682745182015502
243	0xbf76f678685a7a0c	-0.005606146185213944
244	0x3fb97e5a5d0d8e15	0.09958424350548285
245	0xbfa957e367774642	-0.04949865949641864
246	0x3fa09958d20e4ce6	0.03241994442137201
247	0xbfc01833ab54f8fe	-0.12573858133141153
248	0xbfa5835529b24b95	-0.04201761373510419
249	0x3fb31b59758dc767	0.07463606948820499
250	0xbf8af12c8511e16c	-0.013155315218896312
251	0x3f9be0a643668d4c	0.02722415720348907
252	0x3fb4ea59ecaa3fa4	0.08170091655688211
253	0x3f7bee90cfe95654	0.006819310829617804
254	0xbfc7512bc44638fa	-0.1821646412249221
255	0x3fa2cb22e7af5ba6	0.03670605734048786

fc2.bias f8 [64]
0	0xbd38de4ab0f88648	-8.835004620760939e-14
1	0xbd4c384bd9b772ec	-2.0051450197016246e-13
2	0xbd0dc995bf9e5249	-1.3228281239694237e-14
3	0xbd3c70aff4e60692	-1.0103983386918105e-13
4	0xbd2da2f9a3f792bd	-5.264521567425413e-14
5	0x3d082d5e9e315610	1.0736844748923213e-14
6	0x3d323ec420df278c	6.481990120463651e-14
7	0xbd0e39087363ebf9	-1.3421612798097504e-14
8	0xbd4f20f0e1940c9a	-2.211825428936043e-13
9	0xbd3b0bbe1539111e	-9.608622940826567e-14
10	0xbd16a344e68c957c	-2.0106378863588498e-14
11	0x3d432249559bdf99	1.3595476029798078e-13
12	0xbd53fc5b0d116767	-2.840147932476673e-13
13	0xbd36b0e2b827b959	-8.061448206870996e-14
14	0xbd19814e4d39bd42	-2.2653080334709584e-14
15	0x3d4b3e14caf03c1f	1.935696386955039e-13
16	0xbd3941324cbb32ae	-8.97226249314242e-14
17	0xbd32af80863d986e	-6.638442640523473e-14
18	0x3d27e6517158a34e	4.2454360414503866e-14
19	0xbd57e00a4f248014	-3.39286391766165e-13
20	0xbd2f38df4998bb84	-5.5461692299482494e-14
21	0x3d446c71ca217af9	1.4511848640877333e-13
22	0x3d52308a00629abd	2.584898444389518e-13
23	0xbd10b5555834ebce	-1.4839981247938913e-14
24	0x3d311fd11ee60897	6.083768041737964e-14
25	0xbd35cc6dd0b02bf6	-7.74440090608838e-14
26	0xbd225d9704bb2b04	-3.262383360639637e-14
27	0x3d3792cda7139f6e	8.374972008447753e-14
28	0x3d31cd4cd40934a0	6.32452439088268e-14
29	0x3d419dcf2a24a509	1.2517235128415663e-13
30	0x3d3852df8ac685c1	8.641522513252664e-14
31	0xbd451c9e0f99fa42	-1.5000826762866554e-13
32	0x3d3dc994c8234107	1.0582619751147042e-13
33	0xbd33cf76cbad77b7	-7.038070189665591e-14
34	0x3d3951f3b442a109	8.995515401043807e-14
35	0x3c7f1d3433ac00fd	2.6987160585165758e-17
36	0xbd3122da876fb5bc	-6.087982380852053e-14
37	0x3d52e46c85a66a37	2.6847545932729124e-13
38	0x3d15a05031f6e1cb	1.9207945173280096e-14
39	0xbd38073081ee0f03	-8.536490240481073e-14
40	0x3d1fcb8a781cbcc5	2.823970534938786e-14
41	0x3d35dded49f21a07	7.768684181469456e-14
42	0x3d3043a78108df2f	5.778231105622298e-14
43	0xbd52ce2df9b1707a	-2.67240651345129e-13
44	0xbd3df25b150b6ab5	-1.0639205891095718e-13
45	0xbd349129b5bb6645	-7.30688139058508e-14
46	0xbd0b76e97cb2fc4e	-1.219668820628998e-14
47	0xbd41da1c3debcb53	-1.2684604255410083e-13
48	0xbd2ca2b72861262f	-5.086705681592379e-14
49	0x3d4739060d84ec94	1.6500755328183607e-13
50	0x3d234776215eaa97	3.4246643345355003e-14
51	0x3d56895cb46e30ad	3.2026393360361923e-13
52	0xbd369ee39957c296	-8.03647295735071e-14
53	0xbd1a784d95b80689	-2.3510024017078616e-14
54	0xbd4a94ab6b3fc919	-1.8886752176767563e-13
55	0xbd4334208cb1c257	-1.3644993875976783e-13
56	0x3d31f4384d03f46d	6.378536483945376e-14
57	0xbd1ab479e463b7b1	-2.3718791310181394e-14
58	0xbd4836f1eae76028	-1.7205528642365857e-13
59	0xbd33d9d6a2e5927f	-7.052467530948293e-14
60	0xbd3355b51f0769a2	-6.869099046117166e-14
61	0x3d2af4c67c4a897e	4.7883747897552175e-14
62	0x3d3e1967406dac4c	1.0693395234364525e-13
63	0x3ce6ece47017affb	2.5452263280480584e-15

fc3.weight f8 [40, 64]
0	0x3f96c8df413cfc00	0.02225064120943543
1	0x3fa535c4f81d6ee2	0.04142585304972869
2	0xbfbc4cb1ffd6f5f3	-0.11054527755819503
3	0x3fb0ba7982f9671c	0.065345377422457
4	0xbf9ff20fda87d725	-0.03119683047585577
5	0x3fb7834907402160	0.09184700419439684
6	0xbf916f62ad9dd68b	-0.01702646431609493
7	0x3f8ac7bd3531c121	0.013076284585821942
8	0xbfa79cd029ae1119	-0.046118264282116246
9	0xbfa29150d869bb7b	-0.036264921586613284
10	0xbfbbf87514946fdb	-0.1092599082225542
11	0xbfb8da73c4432b83	-0.09708331624567106
12	0xbf6f7460ef81cbe9	-0.0038396733544287976
13	0xbfab425aae63a228	-0.053240617549651426
14	0xbfa04302ae82d294	-0.03176124935399574
15	0x3fc2618cc5fc5102	0.14360198657289663
16	0xbfb03cc1197fc265	-0.0634270369771542
17	0xbfa10e21658453ac	-0.03331093181819908
18	0x3fb6d8763c31f5be	0.08924044580086041
19	0x3f9feeb68843a7c2	0.03118405539218095
20	0x3f8dafc0e03394e3	0.014495379297338967
21	0xbf86bc37afc7ba3a	-0.011101183940778293
22	0xbfc2b00a669dbd64	-0.14599733362727385
23	0x3fb1d6d7cd792099	0.06968449369844833
24	0xbf63ddec31f84a64	-0.002425156897296875
25	0x3f9dd6475fb996b7	0.02913772126921429
26	0x3fc184817453fd80	0.13685625248033872
27	0xbfc27077fa234a2e	-0.14405727113497008
28	0x3f80eb302e799614	0.008261085909178546
29	0x3f974b8a08032e3a	0.022749096621551092
30	0xbf8b9fb38cdca247	-0.01348819993616347
31	0x3f8719a77f1c893f	0.011279400412210648
32	0xbfc42607e25943fd	-0.15741060783560093
33	0xbfbbc6239f2a73be	-0.10849211345562446
34	0xbf9e5aac8542570c	-0.02964276851033447
35	0x3f991f58003bbf7d	0.024533629431004556
36	0x3f84c9c0ecfff3c2	0.010150439484272303
37	0x3fcf2e2f11dff35a	0.24359691975396452
38	0xbfb3fc02e81a74b0	-0.0780641380938103
39	0xbfb73c475574a83e	-0.09076352917023287
40	0xbfb5774a68146d39	-0.08385148087511575
41	0xbfbf7d2438ecf453	-0.12300325765404922
42	0x3fb3ddbe7914a8b8	0.07760229545661701
43	0x3fb90111eba9f623	0.097672576937804
44	0xbfc4fb0f9805cc89	-0.1639117710397822
45	0xbfb168b7bc69d469	-0.06800411558090648
46	0x3fb277bfa25c0c92	0.07213971818787204
47	0xbf8e00fbed176ba3	-0.014650314496000244
48	0x3fa642108c462078	0.04347278320625575
49	0x3fbe7c5b5d3b2eca	0.11908503557350084
50	0xbfa5507fd5240d44	-0.041629786270301256
51	0x3fc22c61696ce4c4	0.14197938583109793
52	0xbfb3184fc4026675	-0.0745897153414264
53	0xbfbbaa876d2bf9cc	-0.10807081618620556
54	0xbf9ead090b23984f	-0.029956952385781496
55	0x3fbf5d892faa96f8	0.12252099431733743
56	0x3fc962a248feb2f6	0.19832256855206482
57	0xbf84d45ee240ecf8	-0.010170689849579237
58	0x3fc1d4574e84bf74	0.13929263433373829
59	0x3fafbc6e2e5d5bcf	0.06198448482489704
60	0x3faa8faa9a62f08d	0.051877337785726764
61	0x3f9a7693b0f6a806	0.025842960048670725
62	0xbfb4b78ebf2f1f78	-0.0809258667715066
63	0xbfa2a831aca1bde2	-0.036439468692033974
64	0xbfc0b289ba5d95e2	-0.1304485473621489
65	0xbfb35a39f0ae91e8	-0.07559549451850212
66	0x3fc3654d820a9639	0.15152901506114505
67	0x3fa9577b3c42b8b6	0.049495555025133184
68	0xbf90166aeb89fb6d	-0.015710516573104117
69	0xbfb1667e832484aa	-0.06797018720364414
70	0xbfbdd2b7e5fe7106	-0.11649655690274949
71	0xbfc4007ba709baca	-0.15626474052574785
72	0xbfbe13bca1195d67	-0.1174886601742081
73	0xbf97cdfb7400049f	-0.02324669738300555
74	0xbf62cb5478ced0a6	-0.0022942209093007203
75	0x3f904f705077b7ac	0.01592803469787156
76	0xbf91c15f19a4d368	-0.017339216175247613
77	0x3fa9ceba36303e01	0.050405329813767004
78	0xbf9bae1c70eb4671	-0.02703136862948558
79	0x3fb5a34b87addc5a	0.08452293455580798
80	0xbfbc57263b4f4c05	-0.1107047934340671
81	0x3f7b3266fcd09e83	0.006639864249372021
82	0xbfb42c05bbd33f5f	-0.07879672847343276
83	0x3fbaeddb3eb88f5d	0.10519190102837457
84	0x3fc58f700f549850	0.16843987225110135
85	0x3f9af3f54bea0099	0.026321251638819907
86	0x3f726a41f332d09b	0.004495866410412354
87	0xbfb0015cd8d0add7	-0.06252079289759337
88	0xbfacc669b523e341	-0.0562012704485313
89	0xbf8cd28838cb8d72	-0.014073433144807555
90	0x3fa4c2d6a3f9331c	0.0405489993250738
91	0xbf96171bf5bbe706	-0.0215725296720626
92	0xbfc0da11335f44e6	-0.13165488251119156
93	0x3f939db1264457f9	0.019156234703665096
94	0x3fbc0d78bc2252dc	0.10958056061856375
95	0x3f98012f076807dd	0.02344201548294921
96	0x3fa02bce649165ae	0.03158421495090678
97	0x3fa332db6d2e6472	0.03749738414553229
98	0x3f99cb683fd2f4d4	0.025189999480734596
99	0x3f609845a8ee8155	0.0020257339997017767
100	0xbfb4b6396ebcf8bf	-0.08090552285736673
101	0x3fa53dd7ad3672de	0.04148744573033068
102	0x3fb356d597b5ac41	0.07554373697136986
103	0x3fa837f5ad035705	0.04730193840957323
104	0x3fc05f36a0bcbd77	0.12790568207263295
105	0x3fb30172b3bef62f	0.07424084556893072
106	0x3fa9f773ca992c86	0.05071603630184378
107	0x3fcb5c9d028f8f08	0.21376383423841383
108	0xbf968420c3ee21e2	-0.02198840328085961
109	0xbfc261bee98b9872	-0.1436079635961423
110	0x3f9999f0ca97becb	0.025001299252777536
111	0xbfa57900a2cb2b55	-0.04193880068995407
112	0xbfc2d78dc8ba7a1b	-0.14720318127815876
113	0x3fba3f1d90ed28eb	0.10252556598894429
114	0x3f77cbd6b2b74970	0.005809630074013902
115	0xbfa5eede418be2c5	-0.04283804464461619
116	0x3fb84ad214861334	0.09489167214458122
117	0x3fa768bded2456bc	0.04572099227713752
118	0x3f4627e4d7529026	0.0006761424434853544
119	0xbfb23a87087b662a	-0.07120555836754563
120	0x3fabb0f870869c9b	0.054084552513182525
121	0x3fa66eca15b3ff81	0.043814005994135215
122	0x3fb4b6328f285dd2	0.08090511317310892
123	0x3fb39237edc25af2	0.07644986681621527
124	0xbf989fb44a6a0fea	-0.02404672340573192
125	0x3f807670d5861bb6	0.00803840781806096
126	0xbfc082f3ed46dc5d	-0.12899636350423097
127	0x3f9423b170c2086d	0.019667408473204185
128	0xbf96e7edf03825d2	-0.022369115626167453
129	0xbfc2139719f1142d	-0.14122284666714915
130	0x3fb4786c6efd19dc	0.07996251783070057
131	0x3fc5df299cc128b0	0.17087288049726146
132	0xbf98467969e9f2b1	-0.02370633801409622
133	0xbfbb444ce5721f9a	-0.106510931031265
134	0xbfad84269d9c7d07	-0.05764885591474394
135	0xbfb285770875443d	-0.07234901386733923
136	0xbf912b3cd6bc626d	-0.016766501051366612
137	0xbfbacfdd27977d93	-0.10473425118060779
138	0x3f845df9a83b1205	0.009944868513579239
139	0x3fbd4876566056e4	0.11438693627163904
140	0xbfc4156ac31875ac	-0.15690359617376026
141	0xbfbf0d5fcce5d56c	-0.12129782440554998
142	0x3fa8769c33267c75	0.04777992367166287
143	0xbf846e83c51db1de	-0.00997641511249808
144	0xbf8ddb0a29a60b2f	-0.014577941318525937
145	0xbfb3bdd9c63fd56d	-0.07711564149925261
146	0x3f8ae84d0a90f70a	0.01313839138503738
147	0x3fbb8b210e6a4e6b	0.10759169198927913
148	0x3f96121574993994	0.0215533592620943
149	0x3fc0662531cefaca	0.12811722690636024
150	0xbf5ed820b0d60077	-0.001882583546233744
151	0x3f8172fb40081f9d	0.008520090953439136
152	0x3fafbae5edc2c99d	0.06197279479364968
153	0x3f91082df0bee312	0.01663276464362002
154	0xbf6102bb1a9c4ff1	-0.0020764974950768724
155	0xbfa59b2bea784e34	-0.04219948994810033
156	0xbfb7fd883b3cc308	-0.0937123436567725
157	0x3fa18db48a481a2a	0.03428425014503873
158	0xbfc4644ecec5adfc	-0.1593111524228873
159	0x3fa00b288c293bd0	0.0313351317496352
160	0x3fa2506253d6b14b	0.035769531950196574
161	0xbfb2f11f24982726	-0.07399172442833599
162	0xbfb39cd9e2ecd070	-0.076612108136773
163	0x3f943599d64317f1	0.01973572130443552
164	0xbf8883e896d9eebc	-0.011970345595947555
165	0xbfa1e39bebc9a629	-0.03493964436786385
166	0x3f9babd0a1a86232	0.027022609583669595
167	0x3fb1f050b75ee73a	0.0700731704409038
168	0x3fc25b3c334f43ea	0.14340927605965642
169	0xbf833ebb5f19d2f8	-0.009396995391605753
170	0x3fb2728ca2fc6df4	0.07206038455154112
171	0xbf6fd87efdfe42ea	-0.0038874130550044976
172	0x3fae20e48ec20803	0.05884470217371531
173	0xbfbd193ebce349b0	-0.11366645919341667
174	0x3fabc1377c21de73	0.05420850172316429
175	0xbf5209de177db1de	-0.0011009854187832217
176	0xbfb63caba6f383a5	-0.08686325860936835
177	0xbf6c2283943d82a5	-0.003434426298483411
178	0x3fabcca4cace4edf	0.05429568267495965
179	0xbfa1cc26faabde9b	-0.03476068315461341
180	0x3f8433f2894b13b8	0.009864706816537935
181	0x3f920fb9b1e8cf1f	0.01763811252949587
182	0xbfb975173e8b9cf3	-0.0994429137896196
183	0xbf912151751d2b3d	-0.016728661320750893
184	0xbf8c701bb8880060	-0.013885704583117497
185	0x3fc661177d90a5e0	0.17483800536255867
186	0x3fbf9789d015acc2	0.12340604143325876
187	0x3fbb8403a8d87044	0.10748312828258216
188	0xbfc2ca9e8e7eff4d	-0.1468084522039085
189	0xbfaf9867d32ced8d	-0.061709637192019696
190	0xbf99a2953978771c	-0.025034267075276437
191	0x3fae90462fdb466c	0.05969447454630203
192	0xbfbe700477e1f236	-0.11889675070592251
193	0x3f70c1173b46dcf8	0.004090395687334374
194	0xbfc2ba874ae365ce	-0.14631739765790858
195	0x3fbc06226d3fb346	0.1094686047287726
196	0x3f72fdb499373c9c	0.00463648363388738
197	0xbfa646ce12b7149b	-0.043508949074330526
198	0x3fab0a00a93cc9af	0.05281068864714499
199	0xbfbe371872ba37ee	-0.1180281906219702
200	0xbfb151136387162e	-0.06764336757540754
201	0x3f7f33da0884c8b8	0.007617809002385005
202	0x3fc7af5ed04e63d3	0.185039378845231
203	0xbfaebf443c830577	-0.06005299795789203
204	0xbf9334691027ae12	-0.018754617320082607
205	0x3f8cca22a30d732c	0.01405741748902186
206	0x3fc19919ad381040	0.13748475034674534
207	0x3fa9edcf4d864b8f	0.05064246960969065
208	0x3fb8de14b832fa69	0.09713868615197331
209	0xbfa6ee2815ec131d	-0.04478574054340909
210	0x3fa22a905fd2b67c	0.035480987260013
211	0x3fbc8b9f8edc0964	0.11150548208028038
212	0xbfa808f5b57d6b7e	-0.0469433578534426
213	0x3fb54e9a3bc38ba4	0.08323062857702596
214	0x3f949a2613031d6f	0.020119280729685437
215	0x3fb4ecfe5deb8801	0.08174123566598725
216	0x3fabbd1edf77e2c1	0.05417725065121238
217	0xbf93374569e0cc08	-0.018765530192649066
218	0x3fa6dea8be552631	0.044667504533731146
219	0x3fc07798093f6692	0.12864971591516344
220	0xbf881b25880aa228	-0.011770528043897846
221	0xbf90e0995ef8c0be	-0.016481777593242646
222	0xbfb2e7c03c82991a	-0.07384873845385123
223	0x3fa7a228d7c7ae4e	0.04615905412705655
224	0x3fc3454be7c8c377	0.15055226152028542
225	0x3fad2419861304d9	0.05691604386948663
226	0xbfc3536ed527d6b5	-0.15098367126454595
227	0x3fb0ec62158cdbf4	0.0661069204914922
228	0x3fbb447f6ab2fb7f	0.10651394228896825
229	0xbfacd6dac1ac7312	-0.05632670988254608
230	0xbf9c7fe276d23f1f	-0.027831591131472707
231	0x3fb36e7af93aa78b	0.07590454659171379
232	0xbf9a5ab2e32030b6	-0.025736613381057004
233	0xbfa173857dee2c65	-0.03408448374019527
234	0x3fab2384912096aa	0.05300535461019014
235	0x3f94f7e5782aaa34	0.02047689958514294
236	0xbfa71b5785b89c05	-0.04513047702157994
237	0x3fae72aba236e1c0	0.0594686160579303
238	0x3fb355cb8934193e	0.07552787875838349
239	0x3fb55edc63b95436	0.083478712412515
240	0xbfa9f970ec86359e	-0.05073120963343601
241	0xbf96da39306f4c87	-0.02231683118936847
242	0x3fc860540588cc03	0.19043970365746085
243	0xbfaf7daabb1a8119	-0.061505637492930094
244	0xbfbbb8ce434b7fa6	-0.10828866141264246
245	0xbfa7ad4c7d9a8e19	-0.04624403985260645
246	0xbfb3a09027b749c3	-0.07666874856594234
247	0xbfb1c981fe2fe2ca	-0.06948101478327398
248	0x3fafe1e5d2369aa1	0.06227033797340665
249	0x3fa51b94fc6f7fb0	0.041226058783422004
250	0xbf895b54058758f2	-0.012381225985262454
251	0x3fc571b3f894e642	0.16753244054580035
252	0x3fa352c14f894900	0.03774074645902381
253	0xbfb18d3af1a8168b	-0.06856125259226979
254	0x3f99cb6c6eec9d0e	0.02519006182697319
255	0x3fb8e3c2f5d83d96	0.09722536565845127

fc3.bias f8 [40]
0	0x3d3e898a2d6ac1dc	1.0849015790610395e-13
1	0xbd48ccbe065c522e	-1.7621299654312072e-13
2	0xbcfdb9b58a04073e	-6.600370542830625e-15
3	0x3d0835a0e038e6e7	1.0751171517914915e-14
4	0xbd34c3e6e6c054cb	-7.377295938700455e-14
5	0xbd34e0154f796b41	-7.416405328657769e-14
6	0xbd2b1f912e278422	-4.818067549448609e-14
7	0xbd4090f60e95b81e	-1.1771031816063002e-13
8	0xbd25ebe85b603e23	-3.8940431742228706e-14
9	0xbd28b757bb148c5b	-4.3904759677639895e-14
10	0x3d5069f005e00a97	2.3325439300324887e-13
11	0xbd0a778af079ba37	-1.175369303945006e-14
12	0xbd1deb3c7b810cce	-2.6573313894894796e-14
13	0x3d5218c5e86286a7	2.571705669064211e-13
14	0xbd1503258c954c7a	-1.866266404047581e-14
15	0x3d2f0be1d3328a16	5.5149510852967564e-14
16	0xbd42f049e8c9813b	-1.3456704384961174e-13
17	0xbd2dd20f9e4688e1	-5.297193939631563e-14
18	0x3d4259016fadc68c	1.303680943846424e-13
19	0x3d4c23457725be3c	1.999309426152663e-13
20	0xbd1b0edd4c229bcc	-2.403238872829561e-14
21	0x3d355f33836d2223	7.592816964269474e-14
22	0xbd2e930ee8b02bb7	-5.4311126693460236e-14
23	0xbd45b9c7c08cf1df	-1.5437041317008141e-13
24	0x3d46f48eff1c2534	1.631072660315481e-13
25	0xbd323fa840077f1a	-6.483226770727831e-14
26	0xbd56acefe3b4e5c9	-3.222387394850842e-13
27	0xbd3a184cf8396beb	-9.270779508799674e-14
28	0x3d37b9c82b6b094a	8.429065657272457e-14
29	0x3cf0cfd293555d7f	3.732971016181873e-15
30	0xbd36b37cf85e6411	-8.065059959880026e-14
31	0x3d369f83673db2fa	8.037339258141801e-14
32	0x3d20d007be87b40d	2.986520927095497e-14
33	0xbd4213d0bc39b659	-1.284476794952767e-13
34	0xbd11acf3e11349dc	-1.5699083190126667e-14
35	0xbd5af6e686500673	-3.8318795286527194e-13
36	0xbd3e0ffbb4c7a245	-1.0680322220001283e-13
37	0xbd239158772ef42b	-3.4759317428485494e-14
38	0x3d417c02a0d4aa1b	1.2423424141044915e-13
39	0x3d3ac9ef0c78168d	9.517294985457831e-14
