CNN/cnn.pth (torch, 187272 bytes, 16 tensors)

conv1.weight f8 [16, 1, 3, 3]
0	0xbfc5efbb93ac2df1	-0.17137856207442284
1	0xbfcf279619af622a	-0.24339557890086044
2	0xbfd392857ae4d934	-0.3058179569374204
3	0x3fbf76a632fc650a	0.12290419335149153
4	0x3fba25f1a7a6940f	0.10214147894892299
5	0x3fce825f9d569d97	0.23835368330513226
6	0x3fbbe8e7dc4862d8	0.1090226090240195
7	0xbfbc7d426b08d21b	-0.11128630746026895
8	0x3fc08368c3adaebe	0.1290102916203661
9	0x3fc6b1dd89f08030	0.17730302081418037
10	0xbfd3dca10928f492	-0.31034112829713323
11	0xbfc7c2d450795f4b	-0.18563321999931257
12	0x3f9826a9d99c253f	0.023584989458901303
13	0xbfd56705c94f374e	-0.33441300067066926
14	0x3f7e591675c292ec	0.007409179434181051
15	0xbfb2990e50f14e53	-0.07264794803750733
16	0xbfcbf4b39185bf23	-0.21840519528949995
17	0xbfafd3ca696a1056	-0.062162709587057094
18	0xbfab4697985585af	-0.053272950501887954
19	0x3fd274933e7693e9	0.288365183829511
20	0xbfc0ee3e00852463	-0.13227057481188628
21	0xbfc57a2cf38cb625	-0.16779100315163578
22	0x3fcf671cd9f52927	0.24533424990142658
23	0xbfa901604b4d96fd	-0.04883862418391336
24	0xbfcd8916b889f1e6	-0.23074611674009232
25	0x3fc7c009e7772bf1	0.1855480556681353
26	0x3fbc1b294c6abd04	0.10978944888733017
27	0x3fb556a36f402e88	0.08335324731904781
28	0x3fd0255db04f5b55	0.2522806379105778
29	0x3fb48769f1c6b6da	0.0801912513040536
30	0xbfd0cc43151fd813	-0.2624671655934218
31	0xbfce048db291d882	-0.23451396197532764
32	0xbfba6ab6a9cab000	-0.1031908192186961
33	0xbfb55b3d9f43420c	-0.08342347276926193
34	0xbfbc6b0776b7f228	-0.11100813530351472
35	0x3fb4a2dc17c55670	0.08061004238455793
36	0xbfb43fd8b042db47	-0.07909921935320795
37	0xbfb84dcc0fad87a9	-0.09493708975563088
38	0x3fab1cfc3feadbb4	0.052955515673083126
39	0x3fcf34e64a33b0b9	0.2438018667520561
40	0x3fc19ee4f83029c0	0.13766157263337497
41	0xbfd2fe08cb515622	-0.29675502639051576
42	0xbfb53f93da279aed	-0.0830013663868205
43	0x3fc7c88b74719eaf	0.1858076399396302
44	0xbfb876552d7ad6a8	-0.09555561409328084
45	0x3fbd357fe4d92a65	0.1140975888930967
46	0x3fc17543550f781b	0.13639108327237257
47	0xbfb5aec98fe39de2	-0.0846982933322731
48	0x3fd0c2e157fa19ac	0.26189454642772136
49	0x3fc28540324fa551	0.14469149071309542
50	0xbfcdd3f335c228a1	-0.2330307018749567
51	0x3fa1cb95c13b187f	0.03475635513091024
52	0x3fcc9bd8be912b7f	0.22350606255562508
53	0x3fd18f19a9c73c8c	0.27435914592656085
54	0x3fc818a95c45929a	0.18825261121232445
55	0xbf900fea21e4e3f4	-0.015685709303600207
56	0x3fb3ffed42a02b26	0.0781238830242442
57	0x3fae9f9e8e5b8309	0.05981154906999648
58	0x3fd060340452c0a4	0.25587177679245543
59	0xbfc8a52d3a264aea	-0.19254079188666334
60	0xbfd082d6fa121154	-0.25798582478480125
61	0xbfc4c6dacc8337eb	-0.16231856332745961
62	0x3fb4736cf0b91f59	0.07988625409154561
63	0xbfcea251651071df	-0.23932855067040656
64	0xbfcb34404c815fc4	-0.21253207908261917
65	0xbfafabc0550afed2	-0.06185723341104467
66	0xbfd4e95bbf155183	-0.3267430654571159
67	0x3fa80512ff139030	0.04691371310926262
68	0x3fbf57eac6d89455	0.12243525843276022
69	0x3fd12d880d3f4fcc	0.26840401929552793
70	0x3fd19818eb2f4c5b	0.27490828482877355
71	0xbfd4b37a64aa6019	-0.3234544737874799
72	0xbfb0e2841eda72b6	-0.06595636132483204
73	0x3fa6e9e8f092c6a0	0.044753341070998376
74	0x3fcef95effd6b3ca	0.24198520176051225
75	0xbfc23082ac6e7eac	-0.1421054212523719
76	0x3fc3ad292743629f	0.15372194687985982
77	0x3fd11e07e63445ac	0.26745793801191087
78	0xbfcc500cf1489dd7	-0.2211929491179336
79	0x3fc6ffef390b0702	0.1796855000048297
80	0xbfbacc512b2be7e0	-0.10468013099662654
81	0xbfd3cd5c9c297a8f	-0.3094092869777478
82	0xbfd0e616ea936eb7	-0.26404354961207893
83	0x3fa76488c98680da	0.045688891029614445
84	0x3fb8934ba4b081e6	0.09599755068530377
85	0x3fd1ff0ddea70392	0.2811922716464831
86	0x3fccb90def7cfa05	0.224397413194268
87	0x3fcf7ba9cf45218c	0.2459614049969442
88	0x3fd007b269b67cb7	0.25046978305358486
89	0xbfc7c4d258d8f957	-0.18569402063617232
90	0x3fc564327cee83e3	0.16712027645283375
91	0x3fd09ca55d8ff067	0.2595609105771985
92	0xbfc0b63a33823aae	-0.13056113734315516
93	0xbfd63c82869aeb8c	-0.34744322915110426
94	0xbfc0cbe2f76be1f9	-0.13122212487338894
95	0xbfc137209ef2f3b4	-0.13449485551055107
96	0x3fcc20e754eb6478	0.21975413938961075
97	0xbfbd046b63236aad	-0.11334868593568599
98	0xbfa3f94295d6dac8	-0.03901107863514636
99	0xbfb9e5709e601eca	-0.10115722529018992
100	0x3fd50ea3913996f0	0.3290184896671766
101	0xbfbe010208822a7f	-0.11720287997938249
102	0x3fc959d55ca1cf5a	0.19805399916696836
103	0xbfbca02b1dd684af	-0.11181897619691726
104	0x3fc340aebd17821f	0.15041145546912646
105	0xbfd473e8b84891af	-0.31957452770646005
106	0x3fc43ab4d45a573d	0.15804157608789096
107	0xbf8523ab357f3378	-0.01032193905839461
108	0xbfcc5d662c332be1	-0.22160031469533606
109	0xbfd1999f553e2216	-0.27500136684878507
110	0x3fd3bb4cea7c8f1b	0.3083069124133872
111	0x3fd4fc18942330b6	0.32788671938466096
112	0x3fc3b2de032816f3	0.15389609483843678
113	0xbfcca98bdadcaa3c	-0.22392414270992045
114	0xbfc9b2d740d6fee8	-0.20077028909690076
115	0x3fce398a172f3db4	0.23613096363122354
116	0x3fa0c8d65bd8a061	0.03278226729554557
117	0xbfc796b391aa457b	-0.18428654301218814
118	0x3fcdba576b23792a	0.2322491906297242
119	0x3fc99e0f2979e05e	0.20013608479689798
120	0xbfa2db942240ead7	-0.03683150213369906
121	0x3fd9767fe22ac144	0.39785763823148934
122	0x3fcb82944f386b2b	0.2149224650209701
123	0x3fc3d187855955ec	0.15483182917766614
124	0x3fab7b649aec16fc	0.053675788794903284
125	0xbfd524028713b611	-0.3303228682624147
126	0x3fc9ca364b35d2ec	0.20148352310538742
127	0xbf972e20d799aec6	-0.022636902960967452
128	0xbfc557f964887c76	-0.16674725922436878
129	0x3fd0f38d0702bfd4	0.26486516651766334
130	0xbfd40020875193db	-0.31250775541985626
131	0x3faab0dfc2372cd0	0.0521306919650556
132	0xbfa1d628a8e8bbf6	-0.034837027186192346
133	0xbfd29c60c955d54a	-0.29079456006669047
134	0x3fa93ba584dea0a3	0.04928319212859946
135	0xbfd3c8967847ce4b	-0.3091179060568023
136	0x3fce12ba3e01f219	0.23494651820864546
137	0xbfb4700877cf7940	-0.07983448910770097
138	0xbfd6ae08d3c7c978	-0.3543722217720169
139	0x3fa30e7f842b0653	0.03721998680476859
140	0x3fd238c930787594	0.28471593602611134
141	0xbfd34ae2e00c6991	-0.3014456928227896
142	0x3fcf3bb0d7abe33c	0.2440091183741745
143	0x3fb9e1f820cf798c	0.10110426713024462

conv1.bias f8 [16]
0	0x3d345ac31ba6f807	7.231385130548085e-14
1	0x3d0d00a68c8c1a06	1.2879715665661085e-14
2	0x3cff3bcb320b6343	6.935245548303679e-15
3	0xbcb28548d9c5abf8	-2.570255517176442e-16
4	0xbcc691675775f730	-6.263873619334208e-16
5	0xbcf11a378c9bbf51	-3.797497897098147e-15
6	0x3df4088d9ff01044	2.9152449893140117e-10
7	0x3e645fe6aa99f104	3.795067489168845e-08
8	0xbd08a1b75e9434f5	-1.0938674075752062e-14
9	0xbe70869a725762bc	-6.15633806913763e-08
10	0x3dff9a71a5c2de58	4.598884933992204e-10
11	0x3d0320fd8a3f285d	8.494924192427625e-15
12	0xbd2616aa20d81374	-3.9237117469423256e-14
13	0x3dc4324599844371	3.6736991217823644e-11
14	0xbd102257cddbde66	-1.4330005879508432e-14
15	0x3daab8df735f6eff	1.2151831282023954e-11

conv2.weight f8 [32, 16, 3, 3]
0	0x3f9de3a34ef51634	0.029188682264495294
1	0x3f78f23be596ffd7	0.00609038731766983
2	0x3f7787ab3ca6f9fb	0.005744618314962309
3	0xbfb2b3f81e0742cd	-0.0730586121856149
4	0xbf7cca2ba08872a7	-0.007028742235459496
5	0x3f54092e0bbc5aa0	0.0012228917757447846
6	0xbfaf9b7bb61d8b37	-0.06173311803902098
7	0xbfa40ca296ef580b	-0.03915889828174109
8	0x3f8bfd3d8e5e49ce	0.013666611582981238
9	0xbfa6d374d298f308	-0.044582033832261614
10	0x3fc29e1cdfb40c36	0.14545021937382935
11	0x3f96e09b175408ec	0.02234117822536856
12	0xbfa14ee558fcb840	-0.03380505286473623
13	0xbf89fe74a2f02323	-0.012692366812204597
14	0xbf328920ac517103	-0.0002828316467622523
15	0x3f7bace5368edcc2	0.006756682742824429
16	0x3f7ade9166bca64c	0.006559913610354306
17	0xbfbb6a016a305940	-0.10708626596929083
18	0xbfb18d6a7abd3f77	-0.06856408592761719
19	0x3fa003f01c1c9557	0.031280044013594015
20	0x3faa185a7dd62fdd	0.050967052327081076
21	0x3f7d408a4af769ba	0.007141628462216715
22	0xbf9df1f3a1f0dc69	-0.029243284949384583
23	0x3fac4ce0493953f6	0.05527401822897808
24	0x3fb1957b4970ebf5	0.06868715804095855
25	0x3fb1367169ea67ca	0.0672369845946427
26	0xbfbf84e77c796fff	-0.12312170781063968
27	0xbfa4732a3b4ad05d	-0.03994113897115945
28	0xbfa21bcbeea4ddcb	-0.035368321305607596
29	0xbf86bb79e4b85382	-0.011099769871216972
30	0x3fb293a118a3a192	0.07256514407675344
31	0xbfb3a96eaa0d5539	-0.07680408145582342
32	0x3f5eaefadee122c1	0.0018727731617379925
33	0xbf9fb088c8a59026	-0.030946862455849232
34	0x3fa0f6326beecc22	0.0331283337358388
35	0x3f99085f6aa9f69f	0.024446001897095667
36	0x3f869c1939e36393	0.011039921836003141
37	0x3faf79eae0a2f5c2	0.061477031632857684
38	0xbfb04742d7024e66	-0.06358735799067858
39	0x3fb2ed34e065d1d0	0.07393198469600937
40	0x3f9006bf0ecc6f3b	0.01565073516677205
41	0xbf9e060aea4323d9	-0.029319925831064218
42	0xbf9e17e39117f91c	-0.02938800404626206
43	0x3fa5b4246bcdb345	0.042390001449212046
44	0x3f8f3a5b25a2f2e8	0.015248024068904312
45	0xbfad25e02e08bace	-0.05692959367694571
46	0xbf92ba9b7a48aea2	-0.018289975489251938
47	0xbfaffd1f6b45b573	-0.06247804817653959
48	0xbfa165838830edca	-0.03397761380662308
49	0x3fac9d16c3df44e0	0.05588599339501754
50	0xbfb684d1773b94a3	-0.0879641452880429
51	0x3f98692d04ec0ddb	0.023838714051647485
52	0x3f94d224619b6857	0.02033287854906293
53	0x3f84d74dc5d7bbbb	0.01017628440874129
54	0x3fb41a88b00b16df	0.07852987573559343
55	0xbf8adb06259a7ef7	-0.013113067648475403
56	0xbf85c5abcfc9a846	-0.010630934027364824
57	0xbf9fb81837d09683	-0.03097570267359241
58	0x3fa228d8cb4d0953	0.03546788675022818
59	0xbfb5765b951da2af	-0.08383724585076878
60	0x3f7b6d20b42006c1	0.006695869205943062
61	0x3fc68092f766f419	0.17579876976188372
62	0x3fa71b9524c3336f	0.0451323134780982
63	0xbf770b98761a0fbd	-0.005626292755213255
64	0x3fa553992583ffff	0.04165342886881262
65	0x3fb1b5e81d754a61	0.06918192595666418
66	0x3fac1f54fa96bc81	0.054926543797926726
67	0xbfaebccaf95e54ff	-0.060034125271309684
68	0x3fa0a412d446e956	0.03250178185722301
69	0xbf90654696034cbb	-0.016011336237011103
70	0xbf8a43bc148fcf25	-0.012824506165976477
71	0x3f97fd91206b88e0	0.023428218463671935
72	0xbfb0848bb443aac5	-0.06452248717293248
73	0x3fb7c58a062597be	0.09285795831746577
74	0xbfb3f80a2db1b59d	-0.0780035363729525
75	0xbf8fb3294c8704cd	-0.015478441856318881
76	0x3f90cc12f4af2fd8	0.01640348070559114
77	0x3fb1868389bc278b	0.06845876801176425
78	0x3f92e29584175135	0.018442474543762095
79	0xbfb06b5e4f760fc9	-0.06413831176729369
80	0xbf96490a933dc2c9	-0.021763005482571516
81	0xbf977e8a328125d4	-0.02294364865546135
82	0xbf8f98e3505e02a9	-0.015428329362977182
83	0xbfaa2144033114bc	-0.05103504694901903
84	0x3fa1089516bb6d16	0.03326860334865438
85	0x3f89a4fc346409e0	0.012521715496863928
86	0x3f7d8cb087a7b649	0.0072142501544312865
87	0xbfb6ad80e5183229	-0.08858495324256722
88	0x3fa7148b83b1d6c4	0.04507862074471583
89	0x3fbff5e70cd53c5c	0.12484592498116015
90	0xbf9a9b4e5e08ee7f	-0.025983070840295937
91	0x3f84c8a77d386693	0.010148342617913008
92	0x3fa5084ec9c29757	0.04107900822536575
93	0x3f8729f3c8468333	0.0113104863638128
94	0x3f73640b43ca3f3e	0.004734081271308642
95	0x3fa13fb1f9781c85	0.03368908090856685
96	0xbfb0d5589af9338e	-0.0657554033616192
97	0x3fadd1a54ee0c9ef	0.058240095022842435
98	0xbfb4fa48ded25f17	-0.08194404067978343
99	0xbf9acd7016ce870a	-0.026174308197034292
100	0x3f8034176757235c	0.007911856499860974
101	0xbfaca20004d7b82e	-0.05592346247782164
102	0x3fa5cb17f786ca7a	0.042565106359138974
103	0x3fa4607600c3bbf8	0.03979843863805138
104	0xbfa5e3e14bedb6a2	-0.04275421192037966
105	0x3f91161f6e3a3d5f	0.01668595419192564
106	0x3f8d9d8d78b24433	0.014460664029941927
107	0x3fa06d9eb14b529f	0.032086333410608285
108	0xbfab5c55247adc03	-0.053438816741099536
109	0xbf7a59cae3ab8216	-0.006433289085834312
110	0x3fad688104d01d22	0.0574379270911385
111	0xbfaf91e06a2f4a13	-0.061659825288774915
112	0xbfb039cafe0849a0	-0.06338185026132814
113	0x3f9113ee09902197	0.016677588781051602
114	0x3f916a2a0b1ccc8e	0.017006546905758806
115	0xbfb75989c5a6b2c8	-0.09120999408214481
116	0x3fa69914275a6242	0.04413664799102836
117	0xbf90e2f0bd866513	-0.01649070889252353
118	0x3fa8942b9cdc2df5	0.04800545015140393
119	0xbfbc56e5b87f92c2	-0.11070094827989421
120	0xbfb129deacf2f908	-0.0670451328505558
121	0x3fa87916ee8a84a0	0.0477988401592111
122	0x3fa3603721c982b3	0.03784343993607333
123	0xbf8532b5289930f1	-0.010350623418297707
124	0xbf92fa6454846d21	-0.018533294352079403
125	0xbfa28a547f9b81fc	-0.036211624695855676
126	0xbfb93a9b258d4903	-0.09855050722879714
127	0xbf57eef9fa166898	-0.0014607850247103978
128	0x3fa01a03872657c9	0.03144846939828445
129	0x3f9c68b0f58f60ac	0.02774311541347234
130	0x3fa9d7a5e85892f4	0.05047338925604619
131	0xbf8588be78d999c8	-0.010514724791573907
132	0x3f89a0fd3c769488	0.012514093787851857
133	0xbfb5dadff5d086d7	-0.08537101508457155
134	0x3f868c5dcbffde88	0.011009915149755814
135	0x3f8ec47717c55017	0.015023165142942259
136	0x3fb4077bda944978	0.07823919378669142
137	0xbf94474d7db301e4	-0.019803248211930483
138	0xbf9ebf659f6d23fb	-0.030026996474848727
139	0xbfa092d7855a59aa	-0.032370314625200194
140	0x3fa8c0baf6d79af2	0.0483454157181792
141	0x3f9cf9cf1826f216	0.02829669556534683
142	0x3fb3b65308a2af68	0.07700079880549782
143	0x3f6994b2e8540e2f	0.0031226629531617904
144	0x3fb17913399833ed	0.06825370937458759
145	0xbfbc959d9cb6fc3f	-0.11165795398754684
146	0xbfb195a430f129d0	-0.06868959612726333
147	0xbf9299c6db1df385	-0.018164736865844872
148	0xbfb89fbeb26ac0bf	-0.0961875138843906
149	0xbfa9f8e27cf3eb21	-0.050726964715030805
150	0x3f8f21880a327aa7	0.01520067483062111
151	0xbfad81134ff16ea3	-0.05762539244525768
152	0x3f367c29d42384fc	0.00034309407432260553
153	0x3fa1311376eeab4d	0.03357754542169875
154	0xbfacf5d8d90ae7e9	-0.05656316422887626
155	0xbf844ad7d3981684	-0.009908376831855088
156	0x3fa0f001d3f5fdb4	0.03308110916531906
157	0x3fa864680b26b193	0.047641040192817695
158	0x3f96e9fa93aedf18	0.022376933349476408
159	0x3fa95e34ec5eee25	0.04954686532388689
160	0x3f7598c490471f35	0.0052726438775108535
161	0xbfbd147df407ffc2	-0.11359393317979907
162	0x3f81331de88e555a	0.008398278865380849
163	0xbf9ca73a961c34b2	-0.02798167744827102
164	0x3fa7bbba6aa7abf5	0.04635412742558024
165	0xbfa046d721be90f3	-0.03179046904486595
166	0x3fb20a301dfc20c6	0.07046795589497198
167	0xbfb43f6480510cbb	-0.07909229405145173
168	0xbf975fd776bbb050	-0.022826544401070514
169	0x3fa4616f6bc945ba	0.039805871875283796
170	0x3f91a8f023f06956	0.017246010011242895
171	0xbf9ef8bae2f8f274	-0.030245704749392435
172	0x3f767800c8abf1d0	0.0054855375881257135
173	0xbfb23ff7de00631c	-0.07128857774695202
174	0x3fada790e94a2bc2	0.0579190525796416
175	0xbfb00fe4ec66d4ef	-0.06274252673650314
176	0x3fa35fb39e250372	0.03783952050662877
177	0x3f797e22a560ad7c	0.006223807655298837
178	0xbfaa102cf848a325	-0.050904660518716484
179	0x3fa2534b5281ce46	0.03579173452535804
180	0xbf9e1bd2f879eb99	-0.029403015533243957
181	0x3fb586c4d7999854	0.08408766044303323
182	0xbfa0262b53616b5d	-0.03154120819882309
183	0xbfb2f5f6256fb899	-0.0740655747792708
184	0x3fb58766b1bf2d6e	0.0840973075821034
185	0xbf786d03844ab02c	-0.005963338601457518
186	0xbfa3fcbab245e976	-0.039037546407558674
187	0x3faa8bfda45e7d54	0.051849294962489495
188	0x3fa73045fce1a839	0.04529017173702283
189	0xbfb42cc49777f1ee	-0.07880810449564254
190	0x3fa2a3d6c3fce0f1	0.03640624182156838
191	0xbfb9ea5c7ace35a5	-0.10123231886082935
192	0x3fb21bb6502f6943	0.07073535401960833
193	0x3f9df22cf3059041	0.029244139035100373
194	0xbfb71f2c0cb5e9af	-0.09031939802472409
195	0xbf8bde0ab88ae5da	-0.013607105023186006
196	0x3fb8ab8462d3b973	0.09636714375276316
197	0x3f8f140d997a44a3	0.015174967046990345
198	0x3fa83869366c5e65	0.04730538167330848
199	0xbfb21f396390be18	-0.070788943107566
200	0xbfc55f2a438bc670	-0.1669667081655919
201	0xbfa692a02f0641fc	-0.04408741544751035
202	0xbfc02ab05ae14b26	-0.12630276143553337
203	0xbfaa3142e5af6ab9	-0.0511570840241879
204	0xbfc08fb33f6761c7	-0.12938538165941635
205	0x3fb958d20b0d3ad4	0.09901154298607234
206	0x3fac63239a627c0c	0.05544387111262247
207	0xbfa3dc8ad0ac7190	-0.038791978810169714
208	0xbfa31ebab5e528bb	-0.03734382124328436
209	0xbfb01b69f7f1682a	-0.06291830352111619
210	0xbfb60e35797ab356	-0.08615431037715146
211	0xbf907892858eabf8	-0.016084947015468004
212	0xbf93ae507c570993	-0.019219644154654224
213	0xbfb5ab1880e85675	-0.08464196345479442
214	0xbf8619dbaaa1e4e4	-0.010791507859027445
215	0x3facc755d03ff544	0.056208306952593406
216	0x3fa0dfc1e581d1bc	0.032957133546833245
217	0x3fba233900626cc5	0.1020999551714566
218	0xbfa27f8e75d56052	-0.03612942875287274
219	0x3f8a3128fd311400	0.012789077975080332
220	0x3f902772428dc841	0.015775475799678643
221	0xbf90869a317d85b6	-0.016138467093133456
222	0x3fa6e64b2ef5cbec	0.04472575138324672
223	0x3fb086b19c24cdc3	0.06455526411155348
224	0xbfb1b920c4c2b7ea	-0.06923107913709683
225	0x3fabc1a99e195625	0.054211903142157326
226	0x3fa4e645859f0a1a	0.04081933265799283
227	0x3fb8077a4ea04896	0.09386410159666733
228	0x3fa5375a32fb32ae	0.041437929843231344
229	0xbfa749256c079ac9	-0.04547993606302254
230	0x3fba9626f3ffe05d	0.10385364014644112
231	0xbf94fcc148feb943	-0.020495433883916957
232	0xbfa8600bb3621a8d	-0.047607770583501276
233	0xbf8b14b2d6f01c9b	-0.013223073181519765
234	0xbf9c58ecbc11e4fc	-0.02768297098052573
235	0x3f83b26a365fbadc	0.009617643150673975
236	0xbf87c2e9ea5fdc54	-0.01160223719123913
237	0x3f85e3e7af74a95b	0.010688600580199539
238	0xbfa243901c674cbe	-0.03567171427462189
239	0xbfa703ec6607cdcb	-0.044951808409588866
240	0x3f9ce94c3ceefc2f	0.02823371049793993
241	0xbfad64b1142a1c5e	-0.05740884181164384
242	0xbf8618ea885ee9c2	-0.010789711271958494
243	0x3fb0efb4ec83d3d0	0.06615763448992529
244	0xbf867b249950b7ac	-0.0109770640648
245	0x3f913b418a09859f	0.016827606248971724
246	0xbf870456608369f5	-0.01123874170337034
247	0x3f7d981edbcb55bf	0.007225151578230392
248	0xbfa3eb2ae2351afb	-0.0389035607463963
249	0x3fa98af19d6e8ef3	0.0498881821324896
250	0xbf6ee818727c2c49	-0.003772781132175083
251	0x3fb021d35681a8f8	0.06301613676047058
252	0xbf906009f1078db0	-0.015991359077714484
253	0xbf91cd60cb147e60	-0.017385017771742617
254	0x3faf1dffe7c55762	0.060775754015294906
255	0x3fb03e77523b225d	0.06345315702049832

conv2.bias f8 [32]
0	0xbcf6cba4cf9d4720	-5.061614142528996e-15
1	0x3d24e5154d94746a	3.711672091223188e-14
2	0xbd31fe0a6ea5ec48	-6.392165617453395e-14
3	0xbd14994e912bd483	-1.8295458560069523e-14
4	0xbd23aa896e9ab0a7	-3.493411701539108e-14
5	0xbd18fbd1ab8b3602	-2.2189954817371758e-14
6	0x3ceff02a87c4a2d2	3.5458468341021465e-15
7	0x3d074261654aecb7	1.0329203554727748e-14
8	0xbce43419e7ee4377	-2.2430413408741143e-15
9	0xbd2ecdd300a43502	-5.4718897666682806e-14
10	0xbd2dbf2c6d9878b9	-5.284088130452795e-14
11	0x3d2ab05d8925f90c	4.740905844268963e-14
12	0xbd281b4a9c94a03e	-4.2821936633643327e-14
13	0x3d26677df8be5051	3.9797971007430253e-14
14	0x3cfffafffd09fe9c	7.1010905097230975e-15
15	0x3d2564ffb253bcba	3.8004313687761554e-14
16	0x3cefd0d86cb5fe26	3.532263634710445e-15
17	0xbd30935a012257d4	-5.888833281849909e-14
18	0x3d26ff9ed264bd8b	4.085357328716329e-14
19	0xbd1eff397e54b2f1	-2.7530840745699625e-14
20	0xbd1bcbe8e088a09f	-2.4688271136165324e-14
21	0xbd19bafd391e5fd7	-2.2853209438773136e-14
22	0x3d04d325d603d7ca	9.24806723711493e-15
23	0xbcf4475e40f9d494	-4.502794126234846e-15
24	0x3d09d738a3e0a1bf	1.147557960214741e-14
25	0xbcfd9a31468a0647	-6.5730342025117705e-15
26	0x3d0438d8df55fc0f	8.98039829624026e-15
27	0x3cf5b80a88b71171	4.822566953942827e-15
28	0x3d0976e27a0cda9c	1.1308462282627642e-14
29	0xbd24ac368adecc73	-3.67221049158756e-14
30	0xbcf69c2041aa9a8c	-5.02039902878197e-15
31	0x3d322d7604e5ec6e	6.457974449979958e-14

fc1.weight f8 [128, 128]
0	0x3f975e4bca9a7d43	0.022820648423132594
1	0xbf965854c9758950	-0.021821331783379805
2	0x3fbf7d90e94bcae0	0.12300973602013299
3	0xbfa6626ccb087fd4	-0.04371967295105575
4	0xbfa90652fd8421ba	-0.048876374670786274
5	0x3fb23263310e587a	0.07108135173470656
6	0x3fc0bde76522d1ee	0.13079540670663853
7	0x3fa637017f8dfc0c	0.04338841135085411
8	0x3f9f8d2704166f49	0.03081189119767139
9	0x3fb30412ea7e159d	0.07428091263689969
10	0x3fb5c07213271fef	0.08496773688887037
11	0x3fa97ac8f537a545	0.04976490014434857
12	0x3fa165708890f0f0	0.03397704760615905
13	0xbfb55da2e17f367e	-0.08346002583786036
14	0xbfa8e46575a25a60	-0.04861752568210842
15	0xbfa7fed71735d998	-0.04686615141229139
16	0xbfb85b615e369877	-0.0951443533909656
17	0xbf76a96686807cce	-0.00553264664634341
18	0xbfc2a441a0e8e61f	-0.14563770634576742
19	0x3fbbe78278e28ccb	0.10900130702298154
20	0x3f9a579a5f20168b	0.025724803977956994
21	0xbfb21407264b462c	-0.07061810192978929
22	0x3f8c081768a74f85	0.013687308198235612
23	0xbf9cf441f3ca84a8	-0.028275518898799007
24	0x3fb770515e81d798	0.09155758435539807
25	0x3fa3de3732ed4faa	0.03880474564235155
26	0xbfc217c393f3538a	-0.14135021900315464
27	0x3faf3dca50d0b798	0.06101829754366789
28	0xbf2ef77ff0ca7524	-0.00023625790381213388
29	0x3fa8c1a2ef34c967	0.0483523289680246
30	0xbfbce0b54d8737c7	-0.11280377524164385
31	0x3fbb3d536a039eb5	0.10640450800166941
32	0x3fbacf3df293fa50	0.10472476169886957
33	0x3fc0a84f66e930ab	0.13013641858049615
34	0x3fabcc6c972859c4	0.05429400773225582
35	0xbf8cf4a70d04e67f	-0.01413851269227284
36	0x3fbcd958f22d60f5	0.11269145882159022
37	0x3f975d117a3810e6	0.022815964779525987
38	0xbfb8fb99b3d95e84	-0.09758911743971949
39	0xbfbbee53e704d91d	-0.10910534277067936
40	0xbfa3c24f550524d1	-0.03859184182017262
41	0x3f735cf077c48955	0.004727305724630722
42	0xbf9d464b0a735323	-0.02858845950398171
43	0x3fa1d1fabfb37fb3	0.03480514135458126
44	0xbfae437d3cac1a17	-0.05910865178707441
45	0x3fa41266bbccbf59	0.03920289080121959
46	0xbf901ebcb22a9988	-0.015742252706922893
47	0xbf75d0fd6d44ecc6	-0.0053262614713346975
48	0xbfa4a37434c49283	-0.040309554520978196
49	0xbf9ffc2db880ae6c	-0.03123542250265958
50	0x3fb32ecdc52a5a02	0.0749329191552093
51	0xbfbaeedce429e6b9	-0.10520725794222131
52	0x3fb1043ad0607cc4	0.0664707907421756
53	0xbf99de16895f9469	-0.025261261114696874
54	0x3fa3032c69a8d48c	0.037133586786162714
55	0x3f7bc53556f71e62	0.00677986942122963
56	0xbfb8275e0503194e	-0.09435069677701799
57	0xbfb64a89f4c1e42b	-0.08707487321397937
58	0x3fab7bc449f954ef	0.053678640394233194
59	0xbf97c5cd878d096c	-0.023215495489475144
60	0xbf95b9d1e985cb76	-0.02121665942963654
61	0x3fb627912bd29c3b	0.08654124565019654
62	0x3f9d5ee9dbe5ce65	0.028682378813256543
63	0x3fb57d02afb5c19f	0.08393875875277111
64	0x3fb83e073fefe133	0.09469647704088828
65	0xbf6eacee1a9e4d3e	-0.003744568869430558
66	0x3fad11758004c06b	0.0567738264820726
67	0x3fb9f433578b9a24	0.10138245475136692
68	0x3fc14a28fc28282c	0.13507568657252145
69	0xbfbd158eb2505aa6	-0.1136101899468068
70	0x3f9d3251a895168d	0.028512264170123692
71	0x3fb7b56de4b4cae6	0.09261214097640966
72	0xbfc00d6f0b96f394	-0.12540996614361843
73	0x3fc16ea6dd7825f5	0.13618932546550835
74	0xbf7ab29401243fc8	-0.0065179616378969255
75	0xbf975880b75953b7	-0.02279854888032037
76	0x3f97c0922eb9dc40	0.023195537664346455
77	0x3fc11da6aa080877	0.13371737768472133
78	0x3fa46898d42c7dcf	0.03986051168453352
79	0xbfb7ec607f83b37e	-0.09345057595392167
80	0xbf9fee88fd813f36	-0.03118337676306667
81	0x3f9e3b0675355747	0.029522038368063688
82	0x3fc0ffd6982a638a	0.13280756406745936
83	0xbfb48dd818e11752	-0.08028936965373859
84	0xbfb4c330248ec819	-0.08110333340189903
85	0xbf851862f8ce126b	-0.01030042001526362
86	0x3fbd39c914854e3c	0.11416298628801597
87	0x3f690beaac81c44c	0.003057440135358058
88	0xbfa5e8347a249882	-0.042787208471325236
89	0x3fa65f75c75d5462	0.04369705256127855
90	0x3f935283b060fdef	0.018869454994499376
91	0x3fb0758e008ab05e	0.06429374230600746
92	0xbfb11a7acfb4ac2c	-0.06681029864255156
93	0xbfa45c3548c10ac5	-0.03976599228965009
94	0x3fa9a23f169f1207	0.05006596709384686
95	0xbfa4bbfdadad9366	-0.04049675698369164
96	0x3f9dcd0e2b6a1418	0.029102536582758715
97	0x3fc115b65bc77596	0.13347510796931478
98	0xbfaf3b3851b0b2d1	-0.060998687717391704
99	0xbf96cf3a1efc91b6	-0.02227488340499103
100	0x3f9447396624a6b5	0.019802948817562355
101	0xbf549bb12f89b4b7	-0.0012578230217983718
102	0x3fb508f1733ac3bf	0.08216771186086101
103	0xbfa722f46dacf5ab	-0.045188558948648115
104	0x3fa49247e4846337	0.040178534169348294
105	0x3fb56ccde4fc0aba	0.08369147148554648
106	0xbf847938e2844481	-0.009996838009586508
107	0x3fa4c72e59cc1d21	0.04058213087233243
108	0x3fa34341c6d4d7b7	0.0376225047315723
109	0x3fb2794af1e1878b	0.07216328053757885
110	0xbfbeb93a2c8fd2ba	-0.12001384342131419
111	0xbfc227199c4f18aa	-0.14181823856615
112	0x3fa5e3d0f2b66cf8	0.04275372469711586
113	0x3fbc7594f8029236	0.11116915755207732
114	0x3f8a8d2f12510a9b	0.01296459936759691
115	0xbfa661f5f1bc21aa	-0.0437161309801611
116	0xbf72a10c7059775d	-0.004548119153325062
117	0x3fae89cfe02e4021	0.059645172229579886
118	0x3fa1f13bad487abc	0.03504358759186263
119	0xbfb4368431154ba2	-0.07895685385055498
120	0xbfb920c713421d47	-0.0981563970582232
121	0xbfa9ae808a4f00b5	-0.050159470446943834
122	0x3fb939f22ddcebb4	0.09854043597890333
123	0xbfa4148b7b4931e0	-0.03921924476580663
124	0xbf8052759adb9357	-0.007969778812773205
125	0x3fc1756a196fc6c8	0.13639570467016982
126	0x3fc095d59a8e40fe	0.12957258268989585
127	0xbf674792629bed44	-0.0028417452893997625
128	0xbfa2218bc03ee487	-0.03541218492268521
129	0xbfad51fd7b37ef4d	-0.05726616028911611
130	0x3f9657482c22c00a	0.021817329114753682
131	0xbfa8ded7cc41d47c	-0.04857515686391253
132	0x3fb1c10ef794bb0b	0.06935208839852806
133	0xbfc1e34f6987df59	-0.13974945690983523
134	0xbfb1fa6610d60d28	-0.070227030859361
135	0xbfa5a80ec1c84197	-0.04229780307298652
136	0xbf61510985634c23	-0.002113836856645361
137	0xbfb8c394cb47ae85	-0.09673433268442906
138	0x3fb4748a85eb00a2	0.07990327615243811
139	0x3fabb67717e1e603	0.054126474061330775
140	0xbfa49b8daf9cc2e1	-0.040249278723768496
141	0xbf52db5027e6f53f	-0.0011509211322924954
142	0x3fb64712435739ff	0.08702196258602866
143	0x3faa13bb541af7b2	0.05093179132153071
144	0x3f8cba2acaad6eda	0.014026960668778999
145	0xbf91bab57a068945	-0.01731380040440313
146	0x3fc7198047813c2f	0.18046573153921616
147	0xbfb04eaf06076776	-0.06370061776342859
148	0x3fb24e2d02467564	0.07150536828563286
149	0xbf72b9af45423573	-0.004571613932183072
150	0xbfb988525128949c	-0.09973635178956147
151	0x3fbd5f237f66d6ae	0.11473295078652754
152	0x3fb3d4286666b1a0	0.07745602130916618
153	0xbfb5d2e9d1d031aa	-0.08524953243631353
154	0x3fbb7b630166e48e	0.10735148224093136
155	0xbfa2a931040cf5a6	-0.03644707846113286
156	0xbfb8168e309a5085	-0.09409416853515225
157	0xbfb57de1591a9669	-0.08395203042399547
158	0x3f8e954af1101de4	0.014933190805108638
159	0xbf92f5ce3a78a283	-0.01851579887275757
160	0xbfab9ebad958a91d	-0.05394538787034462
161	0xbfb8b70df74b320b	-0.09654319083637845
162	0x3fa1694616978e66	0.03400630021840527
163	0xbfc0c951f5c98a73	-0.13114380360919461
164	0x3f89e49f884ec1e2	0.012643095347670778
165	0x3f9e97d75930c514	0.02987610322833685
166	0x3fc0709249c83f5b	0.12843540766379644
167	0x3fb24e1fea3a2173	0.07150458782610318
168	0xbf92fecab44d6d6f	-0.01855007863501384
169	0x3fc059bab858c29c	0.12773832322411216
170	0xbfaafbd6fecc1fbd	-0.0527026353866513
171	0x3fb5e192f55a2dac	0.08547323694272418
172	0x3fbb1bf8ed441afc	0.10589557449939585
173	0xbfb8bb0a6b062f11	-0.0966040145196383
174	0xbf779722b85511be	-0.005759368539035524
175	0x3fc67101eca0c815	0.17532371572593833
176	0xbf9828a40e9af676	-0.02359253253120249
177	0x3fb74a913cf9d91a	0.09098155726119153
178	0x3fb2bde4bbdc22f6	0.07321004473136469
179	0x3fc14481857cd370	0.1349031354708603
180	0xbf981eb2b86878c3	-0.023554604058624983
181	0x3facd4261e678188	0.05630606766840446
182	0xbf955a0012128ef8	-0.020851136305863854
183	0x3fb36963047ad6f4	0.07582682475443986
184	0x3f9f0c3133a17e81	0.030319947029396225
185	0xbfad31f06bd87bb7	-0.05702163044428892
186	0xbfb192c6d34a8481	-0.0686458841178297
187	0x3f95a0354e3665be	0.02111895837660937
188	0xbf846842bc4b0935	-0.009964486476182624
189	0xbfbb90f43a8645e6	-0.10768057278462315
190	0xbfadab0f6a5f051d	-0.05794571088291376
191	0xbfa3f3a95e087d62	-0.038968365410478226
192	0x3f9666453f2a7ad3	0.021874505977957547
193	0xbfb4b0467dac11c3	-0.08081474846046093
194	0xbf79b2d19c5b2d0e	-0.006274050514274222
195	0xbfb5555d65fa4478	-0.08333381404578855
196	0xbf8ac322a2f0a8b0	-0.01306750354531902
197	0x3fb2d582c77f9d72	0.07357041712349657
198	0xbf6a1267dc4fd7ed	-0.0031826046492779898
199	0xbfb6d78c05085d7b	-0.08922648547046734
200	0x3fa2d0b492144d32	0.036748545486398845
201	0xbfb6c376ace7e368	-0.08892003747304289
202	0x3fba2b4b4cb10215	0.10222311613416253
203	0xbfc50781c602bb4f	-0.16429159325113082
204	0xbf8524ae69633165	-0.010323870268984245
205	0xbfa51d38fc07b229	-0.04123857571162077
206	0xbfa725d8a74ca2f8	-0.04521061937550103
207	0x3fc11baeeaafb2f1	0.13365732631009267
208	0x3f9e07a5210e4d70	0.02932603849656118
209	0x3fa5529cb9612a87	0.041645906094875555
210	0xbf9bf80f1ba74daa	-0.027313457548940136
211	0xbf838f4d1830260b	-0.009550669003163944
212	0x3fb2e6664458563f	0.0738281170709678
213	0x3f9ea8c6bbd078ef	0.029940705502775108
214	0x3f949b55dbe84bd3	0.02012380747516913
215	0x3fae5a0901f92643	0.05928066395842937
216	0x3fbffb81a2a7ac99	0.1249314329249266
217	0x3f9932801a800270	0.02460670625441924
218	0xbfb03aa3a5b266f7	-0.06339476390203545
219	0xbfa062a9b8613ebb	-0.03200273872118716
220	0x3fa9418f7ddc4123	0.04932831202870804
221	0x3fbfec97f2121079	0.12470388088155628
222	0x3fbd25d128b85ad0	0.11385829204696596
223	0x3f9360f073a07341	0.018924481446549683
224	0x3fadac8dd9a54a99	0.057957108324122326
225	0xbf762223b2ce95c0	-0.005403651663902165
226	0x3fbe108bf5763441	0.11743998282163749
227	0x3fbcfd9f64e7ae59	0.11324497426510884
228	0x3f972f855aa3a498	0.022642215401820737
229	0xbfb15679d5bf1602	-0.0677257677881116
230	0xbfc09b2efac7eca7	-0.12973582501567657
231	0x3f95e00ab0acc563	0.021362463982943846
232	0x3fad0e28237cfbd4	0.05674863274770528
233	0xbf8dec3f9cac30d4	-0.014610764473694728
234	0xbf80e31e2a71b7ed	-0.008245692892355517
235	0xbfbcb3c852303967	-0.11211826330711504
236	0x3f9ee9ee99caacf0	0.030189254891109962
237	0x3f99ce60db5b8181	0.025201333416477126
238	0xbfad007e5240f87b	-0.05664438966822246
239	0x3fc44223e517b969	0.15826843916097325
240	0xbfa77f451067c19c	-0.04589286637554155
241	0x3f9c667b3099019e	0.027734684792677926
242	0xbfc21eab176c14dc	-0.14156092303907186
243	0x3f31b5b89e1ffff5	0.00027023083941912714
244	0xbf7f9b4c74076c90	-0.007716463704549828
245	0x3fb9b0045ff78454	0.10034205763760556
246	0x3f881e80c35feb00	0.01177692981945233
247	0x3fa708062dcb4dab	0.04498309430132549
248	0x3fc85782aed2af2f	0.19017060791281312
249	0x3f8d3b9c8644bde1	0.014273856017637367
250	0xbf8ade7a07f3434b	-0.013119653098699799
251	0x3fb142eb4b545862	0.06742735470865704
252	0xbfa2bc8d889b6249	-0.03659479420247586
253	0xbfb3b3ad1d78dd27	-0.07696039170774736
254	0xbf5c4451d4606dfd	-0.0017252730481293048
255	0x3fb46d159c495fd3	0.07978949609366674

fc1.bias f8 [128]
0	0x3f83eedb6f08047e	0.009732927633196772
1	0x3fb87835c607a810	0.09558425984110408
2	0x3fb67a67ae8e9acd	0.08780525218626707
3	0xbfb0a7fa0355030f	-0.0650631197104412
4	0xbfa1513fd62474eb	-0.03382300843279914
5	0xbf9415a6db12f42a	-0.01961384498712363
6	0x3f90c7fa8a1cdd6c	0.016387858085378168
7	0xbfaff284d6be1342	-0.06239714738243275
8	0xbf9a8613742f8545	-0.02590208431855003
9	0x3fa1c210c74b2a46	0.03468372757705089
10	0xbf950b17cdaedad3	-0.020550128868957195
11	0x3fb7edaa1246b825	0.09347022005269474
12	0x3fb621ac1612eb8c	0.08645129717744576
13	0x3fa765c874c405e9	0.0456984179054521
14	0xbfaacd471fbd5929	-0.05234739553877638
15	0xbfa0d0315523d93b	-0.03283838428790139
16	0x3f90b1115c33be9d	0.01630046010262608
17	0xbf9ba8c21e740e02	-0.02701094923851422
18	0xbfa71e8653e033ab	-0.04515476011156435
19	0xbfb11436e64b8e29	-0.06671469805183307
20	0xbf9bb8b4ba5393f1	-0.027071784851518236
21	0xbfa91d45e8ede2ad	-0.049051460918183444
22	0x3ba492a19d47ad66	2.1782276549569583e-21
23	0x3fa393af9a3a8c11	0.03823612935709531
24	0xbfadada8a9baa45e	-0.057965536803131754
25	0x3f9e53040418056f	0.029613554715984088
26	0xbf60ad155d2199fb	-0.0020356576215363443
27	0xbf705297262e826f	-0.003985014368396918
28	0xba8d105153edd0ec	-1.1738751491246677e-26
29	0xbf9bdef3a28408da	-0.02721768073480111
30	0x3f8e9dae83eea393	0.014949191476107326
31	0x3fa70b19a5e59eca	0.04500656271085075
32	0xbf9c0664b8f8ef9f	-0.02736813906652424
33	0xbf988091047372fc	-0.02392794217745385
34	0xbf40633ea7fc6c8f	-0.0005001121462301516
35	0x3f9bc476a2d937b0	0.02711663598011399
36	0x3fb547369b7f4d26	0.08311787887878505
37	0x3fb370c4cd91d14b	0.07593946474827822
38	0xbfa64978666a60ef	-0.04352928400220601
39	0xbfafd5efca5e1377	-0.062179082348882746
40	0x3fb7b413d21e4e00	0.09259151344149785
41	0xbf997ed9ad84cf9d	-0.024897958007570876
42	0xbfb2120d7d83526b	-0.07058796228677415
43	0xbf80f02f5b69b310	-0.008270616509628265
44	0x3fb9f6afd4fe6620	0.10142039251368162
45	0x3faa47d8045f6e6e	0.05132937482241294
46	0x3f8140d576f23053	0.008424441997952814
47	0x3fac5c01c1df87e2	0.055389456669004536
48	0x3f7e0aadc57c1c9c	0.007334402842167933
49	0x3fa1e8d746be2f19	0.03497956026612154
50	0xbfa0693bc56655b3	-0.032052867743156986
51	0x3f77f8d81b622997	0.005852550666654819
52	0x3fb62777946e5544	0.08653972028544837
53	0x3facd0970f39c2e7	0.056278915985677185
54	0x3fab7634d28caff8	0.053636217786646456
55	0x3fa6c91ddc09fef3	0.0445031481840469
56	0x3fb6e7542d198009	0.08946729756416984
57	0xbf97bcec6c8d8b00	-0.023181623578589772
58	0xbfb2ff499a32a967	-0.0742078782520018
59	0xbf8672e38a25c9e6	-0.010961320546560804
60	0x3fa6ebf4c158c19f	0.04476895199002517
61	0xbf78f1d55238ac76	-0.006090005193566053
62	0xbf90e93656567353	-0.016514634151110496
63	0xbfb11fe228c75f87	-0.06689275260521131
64	0xbf93c85795e61328	-0.0193189320794033
65	0x3fb0f58a15154ec8	0.0662466336701143
66	0xbfb30d2ace78872a	-0.07441966572562522
67	0xbf75a9ae9eab525c	-0.005288774593925707
68	0xbfae4a2079beac21	-0.059159293042590606
69	0xbfa1d96fe574cce3	-0.03486203838328963
70	0xbfb5e2c7b0d22d20	-0.08549163882178279
71	0x3f70403636ac4a98	0.0039674871175231705
72	0x3faa02946f1c99c8	0.0508009324678827
73	0xbfa5d89447a20287	-0.04266799330162479
74	0xbf7916b4324bcde8	-0.006125167744119399
75	0x3f967793f5ad4806	0.02194052874558141
76	0x3fa9343a253d96f2	0.049226586385698115
77	0xbfb217248e1b4f76	-0.07066563100243947
78	0x3faeeffa1063147d	0.060424627781267205
79	0xbf93809f6747b20b	-0.01904534404632056
80	0x3fb21f38a316d3bf	0.070788898293201
81	0x3fb54d0d77c639f6	0.08320697950532704
82	0x3fb232ff4a5f08b4	0.07109065595344327
83	0x3fb0510d908bdb35	0.06373677042925581
84	0x3f96513695c4287f	0.021794178858762777
85	0x3fb5e8f94b168f2f	0.08558614810186492
86	0x3fa7e616dd57d775	0.0466773171610119
87	0x3faadb35c0db505f	0.052453689376904526
88	0xbfa0f41d1d69ba8e	-0.033112439957098436
89	0x3faf6f18e62d360c	0.06139447984478971
90	0xbfafbee2b9137c23	-0.06200321683149237
91	0xbf616f88cdb649ec	-0.0021283790535531113
92	0xbda248334c98be21	-8.31370596813866e-12
93	0xbfb35b1649df3f80	-0.07560862830655246
94	0x3fa2fafdbc683f1a	0.037071160553862906
95	0x3fa988c1a6bdea4b	0.049871493915777686
96	0xbf8263554ba79fc4	-0.008978525515843112
97	0x3fb12947df166891	0.06703614422295547
98	0xbfa55905ad792d96	-0.04169481031984927
99	0x3f8c3ec3137f62ba	0.013791584045905626
100	0x3f6987caa25102d2	0.0031165082641851716
101	0xbfa585acac930b32	-0.042035480562410035
102	0xbf9b74134ba6fd87	-0.02680997990841896
103	0xbfa8d14e6d5a565f	-0.04847188076852826
104	0xbf944cc5ac10d902	-0.019824112536491086
105	0x3f8d8e2c0cd16b3a	0.014431327954459772
106	0xbfb03fb921d1cc78	-0.063472338444443
107	0xbf9db54a6d31e33d	-0.029011881746984648
108	0xbf8c8f85387ac362	-0.013945618425482646
109	0x3f8f452f8b532735	0.01526868003783797
110	0x3fa370103a5d903a	0.03796435081929457
111	0x3fb689408d153274	0.08803180164722751
112	0xbfa0a787e88d7c6a	-0.03252815927293613
113	0x3f96bfe277a8e9e4	0.022216356805282347
114	0x3fb0c22df9573ed1	0.06546294534131937
115	0x3fb0d5ceaeb51306	0.06576244130435435
116	0x3fb11fb4380b239a	0.06689001434564404
117	0xbfacf0b616cfbcfa	-0.05652398136578003
118	0x3fb78fdb09073278	0.09203881235516487
119	0xbefc260a9bf16903	-2.6844596274202593e-05
120	0xbfb1c26e24783a29	-0.06937302008029946
121	0xbf8335fb5199fd6c	-0.009380305698185785
122	0xbfa79481b0a9aa61	-0.04605489045646461
123	0x3fb179933b2f22ba	0.06826133913922208
124	0xbf770b7a0df7d3d9	-0.005626179481159143
125	0x3f9014464b65262a	0.015702341415169276
126	0xbfb614a82e6c8113	-0.08625270017046587
127	0x3f981d297afa1943	0.02354874432651256

fc2.weight f8 [10, 128]
0	0x3fb1b23e1d7c9a0a	0.06912601680651434
1	0xbf83a215e653f6cc	-0.009586497394134773
2	0x3face415babcbb9a	0.05642764954097075
3	0xbfce3e93aaf56cb4	-0.2362846932181576
4	0x3faec7bd802d7bf0	0.060117647072495006
5	0xbfab64035aeca467	-0.05349741444508354
6	0xbfc57f3a771e8d9e	-0.16794520202993807
7	0x3f9ca34a5352297c	0.027966653190142562
8	0xbfb1706adc90148c	-0.06812160382112803
9	0xbfb929bd36a00bb3	-0.09829313834784052
10	0x3f8822bc12d413ee	0.011785001110647255
11	0x3fad310407041d61	0.05701458535809923
12	0xbfc7c110314ced40	-0.18557932288408985
13	0xbfc347000a89ac6a	-0.1506042529539145
14	0xbfb4dbd9e7456b8f	-0.0814796628596197
15	0xbfc4ad9349f68fcc	-0.16154709922295607
16	0xbfcbbe8f3f410f2a	-0.21675291622715892
17	0x3fb7f5429a23a92b	0.09358612311522012
18	0xbfc254fdc25fae57	-0.14321872702508884
19	0xbfbac3c16452825d	-0.10454949092173522
20	0xbfc77f9859540594	-0.18358139383057603
21	0xbfaa268949d6d189	-0.05107525850636125
22	0xba6eab415dea84e6	-3.0967741970390984e-27
23	0xbf94029e8fad0974	-0.01954124214103943
24	0xbfc3c803d9affb03	-0.1545414746214747
25	0xbf99f1641775b05a	-0.025334896022670562
26	0x3fb0eb81acee10f5	0.06609354469225422
27	0x3f86ef5172a571dd	0.011198650656916104
28	0x3df36d174988eeeb	2.826874928020664e-10
29	0x3fbdb98ccc339f73	0.11611251817123307
30	0x3fb1c74ed13777e9	0.06944744689778272
31	0x3fb39172c0472a03	0.07643811411177386
32	0x3fa9a43c12824785	0.050081135997188254
33	0xbfc971262107ca54	-0.19876553166212096
34	0xbfc3c1ea474f869e	-0.15435532075848796
35	0xbfa386809d4f056c	-0.038135546877593324
36	0xbfb304b725dec001	-0.07429070162356767
37	0x3fbc21ac433c405a	0.1098888076924153
38	0x3fb4062b12a7b3f2	0.07821912007757684
39	0x3f4108dceeda7368	0.0005198553823962783
40	0xbfbedceaee2b668c	-0.12055843653379322
41	0x3fb842a4576a8ca0	0.0947668755930402
42	0x3f7712b760a062be	0.005633083646920665
43	0x3fa1d73d97490625	0.03484528037780547
44	0xbfbf9e8f9e9f71af	-0.12351319906833312
45	0xbfb68f9ac74a22b5	-0.08812873235195691
46	0x3fbc5ab6eb5e6842	0.11075919386203828
47	0xbfc7790e8110438c	-0.18338185598306855
48	0x3f8d4376a1b3d57c	0.014288832483070328
49	0x3fb69ecec4842d8c	0.08836071298372
50	0x3f4950864c6e2a78	0.0007725387339275322
51	0x3fc2d07520c891d1	0.1469866190028726
52	0x3fb1a0422db4dab6	0.0688516007984202
53	0xbfc445063ee66b6f	-0.15835645743649304
54	0x3fb2cac52cf60bf5	0.07340652797397225
55	0xbfb1a86bdde68ab8	-0.06897615592473982
56	0x3fb45d94e82752c5	0.07955294292271294
57	0x3fc3b827ebd3a4ed	0.15405749335267363
58	0xbfb5168ce375bea2	-0.08237534096928781
59	0x3fc09ba4fff721b4	0.12974989412601945
60	0x3fc16452665ec295	0.13587408064406206
61	0x3fb644368408fa20	0.08697834704887741
62	0xbf6304060eabe59d	-0.002321254568752719
63	0x3f97f6342e0902bd	0.023400130567327027
64	0x3facee99d0c671aa	0.05650787995839164
65	0x3fa474e40d039adc	0.039954306210167906
66	0xbfad2b406aad245a	-0.05697060873223654
67	0x3f76144aa5692738	0.005390445314853491
68	0x3fa026f81ff083a9	0.031547311686387865
69	0x3facd33dde6bcd6a	0.0562991460809837
70	0x3fae7f8f08934f4d	0.05956694583588149
71	0xbfc2abb04fc5a3ed	-0.1458645238410833
72	0x3fc2723f1f5f3b44	0.1441115287002167
73	0x3fc118591fa4fab8	0.13355554623736565
74	0x3f61d67c3d55d26e	0.0021774698786265955
75	0x3fb5a520c476c41d	0.08455090328676858
76	0x3fbcc284ce97ce17	0.11234312099241382
77	0x3f998ee724689946	0.024959193799213318
78	0xbfc52bcc6edf31a9	-0.16539912618317246
79	0xbfc07fad6ab7b081	-0.12889640532319294
80	0x3fbf922b9c6db589	0.12332413262421062
81	0xbfc9628102a4eb48	-0.19831860188591066
82	0xbfbfe4081ffdf664	-0.12457323819213567
83	0xbfa07a8d94ba4739	-0.03218500557444632
84	0xbf87eb8cd7fbd825	-0.011679745045949439
85	0xbfc927a1561ddd09	-0.19652191834368463
86	0x3fa1c34d752f4ccf	0.03469316535451982
87	0x3faa7f14c04c70fe	0.05175080153841981
88	0xbfc0a0c7971bea3b	-0.129906605514252
89	0xbfc9c4efafc5ca7c	-0.20132251818320757
90	0x3fb56ea2e01968cf	0.08371942492650251
91	0xbf21bb2f73a34e1b	-0.00013527826542390837
92	0x3f7de9c4bd4ffc8f	0.007303017152479842
93	0xbf902cf836f5ab58	-0.015796545366735998
94	0x3fb95f8192d1c3d1	0.09911355814416757
95	0xbf94a3818d1facd3	-0.020154976118573153
96	0xbfc698bfd7f8c15f	-0.17653654141896433
97	0xbfab4f7d8a17a2b9	-0.05334083853432987
98	0xbfa99fed0a9ac173	-0.05004826311540258
99	0x3f63e8a07c89b7aa	0.002430261087559911
100	0x3fa21f7356c3cfdb	0.03539619859830597
101	0x3fba85ae643b1268	0.10360231349029336
102	0x3f7f43b8d5efc47c	0.007632944120801285
103	0x3fb9ceb8a01c368f	0.10081056508007634
104	0xbfbeacf748f7d554	-0.11982675105521895
105	0xbf877f986c76c4f5	-0.011473837671334123
106	0x3fa8dd706a61142a	0.0485644464356841
107	0xbfa400bc480515e0	-0.03906811122082465
108	0xbfc26b02b790f7d3	-0.14389070475766505
109	0xbfbde6c410f57667	-0.11680245794328813
110	0x3fb80407e4dcd22f	0.09381150567498574
111	0x3fc0ba32ea962d13	0.13068233923363745
112	0xbfbf9549e83b8cf5	-0.1233717147802514
113	0xbf9ccb4b1c495049	-0.028119252778495505
114	0xbfc925735640415e	-0.19645539962267383
115	0xbfb8b16f967fb0be	-0.09645745682036286
116	0xbf7f2b43f3f59bd5	-0.0076096205151321055
117	0xbfc43d41a25d6fda	-0.1581193964765351
118	0xbfb55740219edcf4	-0.08336258717359951
119	0xbe146210e0a6292a	-1.186450828725516e-09
120	0xbfc3457a927b354c	-0.15055782463461254
121	0xbfc13fa73b59312c	-0.13475504300948538
122	0x3fbd5393b9dd2c4b	0.11455653464979425
123	0x3fa77b7b8d3cd1b1	0.04586397265521514
124	0xbfc478b19e8f617c	-0.15993328325454204
125	0x3fbb4f065f3e674b	0.10667457413947294
126	0xbfb4da7eb229e540	-0.08145896768282501
127	0xbfa53f60dde61116	-0.041499163710826334
128	0x3fbe8f5b445f4dab	0.11937494677777376
129	0xbfc91c2d170ee68c	-0.19617236734284338
130	0xbfb2ddd750ce5d61	-0.07369752619557836
131	0x3f973c7219de5d55	0.022691519574064973
132	0x3fb26be093bc909c	0.07195857626772056
133	0xbfc30a9fc86fd560	-0.14876172339396998
134	0x3fb37e9afd0bf615	0.07615059545420196
135	0xbfc9739fad7107e8	-0.19884105652641826
136	0x3fc0b46b6582afa0	0.13050596672598846
137	0x3fbd22751c9b63c6	0.11380702923214789
138	0xbfcdce98ad05936e	-0.23286732147530692
139	0x3fabef0b029eecec	0.0545581284236166
140	0xbfc57948b6e84915	-0.16776379519485177
141	0xbfb2f7cac9d1ce63	-0.07409350802645913
142	0x3fbac7d0c5d4d2cf	0.1046114428507494
143	0x3fbcd8c3af336b32	0.1126825621353589
144	0xbfc3647ff5be003d	-0.15150451182489802
145	0x3f9e20d8960dfca4	0.029422172697647256
146	0x3fbcc7bd5fba5df2	0.11242278658971097
147	0xbfd02ee2d93c6c92	-0.25286170210319725
148	0x3fbdbf0c9bd5217d	0.11619643024926592
149	0x3fb51f47b68eacd4	0.08250854689565595
150	0x3f2f4dc1d52faefb	0.00023882857439560382
151	0x3f9bd19fd72548e0	0.027166841036270095
152	0x3fa4213233cbf8c3	0.03931576616558765
153	0x3fa2ed301d3f86cf	0.036965850420313744
154	0xbfb962a593cc01a8	-0.09916148050616036
155	0xbf77eca729e564da	-0.005840924246819779
156	0x3b56ad1eac444a6e	7.502941508454006e-23
157	0x3fa58a65c4e05467	0.04207151439929007
158	0x3fa58cad7aa78bd0	0.0420889103150085
159	0xbfa5eae98fbb7d8e	-0.04280786399408064
160	0x3fb68647243bdeb9	0.08798641810050868
161	0x3fb2e0c3362b718e	0.07374210426809766
162	0xbfa085f2e91fed7f	-0.032271948773963104
163	0xbf5e27ca969aa41e	-0.0018405416871394363
164	0x3fbcb28adf88d8ee	0.11209934193979951
165	0x3fa578870e2e8d59	0.041935177308256306
166	0xbfca3c12d1a892a6	-0.20495829808455318
167	0xbfa580da1c47e202	-0.04199868769859806
168	0xbfc85ca09e12c969	-0.19032676428248443
169	0xbfc73441b04b19a9	-0.1812822447593139
170	0xbf9fa31f6ed11217	-0.03089570154067375
171	0x3f8961d4d7910a1f	0.012393629864281995
172	0xbfb5d5dc3109967b	-0.08529449650958469
173	0x3fb81ee0c5283cc4	0.09422116101653716
174	0xbfb59c2d8f51fd72	-0.08441433667211642
175	0x3fb2213e27f8bd26	0.07081974483366035
176	0xbfb25cada3136e43	-0.07172665816636319
177	0x3fab1275198e2882	0.052875193948310986
178	0xbf9c6c2ce907319f	-0.02775640651980071
179	0x3fc0a69ad4f11bbe	0.1300843753581073
180	0x3fa37249cebaabf1	0.037981325612541535
181	0x3fbc1dece472d0dd	0.10983162476879067
182	0xbfc4e9a46a2f23a4	-0.16338019547245353
183	0x3fabda89cc81e561	0.054401689733775134
184	0x3fb009c1f9c2ce6b	0.06264889095000974
185	0x3fb14d19140e36c8	0.0675826715434723
186	0xbfb16f9facd106a8	-0.06810949296143554
187	0x3fa97e4626fd422c	0.04979151941245549
188	0xbfcc749b88ad78b0	-0.22230858014785815
189	0x3fb2b7ae93c52c69	0.07311526401206127
190	0x3fb0f37cedd89e97	0.06621533209601647
191	0x3fa157f0393b71cf	0.0338740415442974
192	0x3fc0145acfde9c69	0.12562117719537305
193	0xbfb61b9b825ac92b	-0.08635875637518058
194	0xbfb2dbb6c4a0ac5c	-0.07366506863097427
195	0xbf882ae92c4528a2	-0.011800595916288185
196	0xbfc3adb0b181de7a	-0.15373810450886422
197	0x3fc035f63f8a089a	0.12664678671359725
198	0x3fb784e28e2fcc9c	0.0918714139113938
199	0xbfc470526e02bbaa	-0.15967779513945618
200	0x3fb90f467f819e6e	0.0978893338484512
201	0x3f9b70e6847132aa	0.02679786856997405
202	0xbfb92d666d84537c	-0.09834900068046964
203	0xbfca8d4405519685	-0.20743608722402854
204	0xbfc9ddaa9b31d2c3	-0.2020772226129762
205	0xbfc1602fc101e2fc	-0.13574788021266915
206	0x3fa783a576b91eb8	0.04592625688797852
207	0x3fc44eb415408027	0.15865183866208207
208	0xbfc2273ff3d8decd	-0.14182280928229432
209	0xbfd073ed21beb7f2	-0.257075579599472
210	0x3fac75539f75089c	0.05558263131617133
211	0x3fb401e07f73f335	0.07815363990443987
212	0xbf73b85a2961fa41	-0.004814483827543515
213	0x3fb1b454ce475e4b	0.06915788684943285
214	0x3f9e59f5b1e1ed4d	0.029640044195258942
215	0x3fa98b987a8328d2	0.04989315505516036
216	0x3f6a6825ec1b3d0d	0.0032234898252238076
217	0x3fb5883ed1d4c99f	0.08411018965560978
218	0x3fb4c6b29e27893b	0.08115688668434455
219	0x3ee0f3e136b88c73	8.083655948237637e-06
220	0x3f743f580bef094c	0.004943221981138567
221	0xbfca5981692721c0	-0.2058564914170926
222	0xbfc1dadfbfdf6773	-0.1394920050504954
223	0xbfa16ba5b537d7a1	-0.03402440869460511
224	0xbfb6ac63c0614a6d	-0.08856795737055174
225	0xbfbf75030f805f63	-0.12287921074346068
226	0x3f91198c4a502fcc	0.016699020419807017
227	0x3fa80259eba1cb2f	0.046892938626930884
228	0x3fa966933ee69d1d	0.049610711506199424
229	0xbfbb4e970bc5ec7c	-0.10666793858938378
230	0x3f4ffdb6e342629b	0.0009762900358679273
231	0x3fad5f9d715bb073	0.05737010964171043
232	0x3fb0b227b8d59ea8	0.0652184320693957
233	0xbfa2a1f976cf1550	-0.03639201712898432
234	0x3fa53a590b5b626a	0.04146078361163037
235	0x3fa96c00e2d69159	0.049652126016811855
236	0x3f824bcbe6ee8c34	0.008933632836322848
237	0xbfacf8c628bdd434	-0.056585495446519835
238	0xbf90cb0f6b2bb517	-0.01639961330049741
239	0xbfaa92fb381b5f28	-0.051902628516187044
240	0xbfb34810c3847cf0	-0.07531838200928909
241	0xbfceb529c33b86a8	-0.23990366013372477
242	0xbf59e6c6966452b9	-0.0015809001284356318
243	0x3fc03d81fd631e6e	0.1268770682565789
244	0x3fb1b2b164797051	0.0691328878687625
245	0x3faf502fad120ed3	0.06115864741971468
246	0x3fbac1947dea0e50	0.10451629709319232
247	0x3f54cc6f58fd3e19	0.0012694442156834294
248	0x3fb86ec8f5db6e39	0.0954404449689087
249	0x3fb04c64dadb1313	0.06366567938955496
250	0x3fbf941deaa50683	0.12335383394840886
251	0xbfc1031f146a577e	-0.13290775772901137
252	0x3fabcc0e7a42a6a6	0.05429120294986704
253	0x3fa62bf35b790d15	0.043304066578025914
254	0x3fa7cd6c6347674d	0.04648913108731154
255	0x3fbd0aac867134e1	0.11344412119179338

fc2.bias f8 [10]
0	0xbfa50669f5ff292f	-0.04106455924882579
1	0xbfae68fd3db59ec3	-0.059394754202740006
2	0xbf9087cbb55805d9	-0.01614301962218243
3	0xbfa30817952731b1	-0.037171112973371286
4	0x3fabaa47aff2073e	0.05403350851794507
5	0x3f6b970a66c88f60	0.0033679202226881005
6	0xbfa8e9d88243ce67	-0.048659101392243546
7	0x3f8e9250b580f94d	0.014927511729294319
8	0x3f80f533faccdad0	0.008280187693896407
9	0x3f755cb4183bdd3f	0.005215362067011952

bn1.weight f8 [16]
0	0x3ff02d60635d5ce7	1.0110782510217236
1	0x3ff0983012f4e526	1.0371552219861058
2	0x3ff07fab913aa373	1.0311694787035008
3	0x3ff13f77b4f03974	1.0779950206666316
4	0x3fefa0e5bd752dd9	0.9883907986017518
5	0x3fefdef42f7e3ef1	0.9959660461044831
6	0x3ff079ad0f0440d2	1.029706057222985
7	0x3ff030d08740b422	1.0119176181135647
8	0x3fee19fd01963bad	0.9406724005692603
9	0x3fef7f3e9c130494	0.9842827843023252
10	0x3feffd5be40ed1df	0.9996776060348188
11	0x3fed6c4d45f07930	0.9194704404833711
12	0x3fee92c125962ef9	0.9554143652071324
13	0x3fefe9109e6ece9d	0.9972003073111925
14	0x3ff0c863568e07ac	1.048922861199098
15	0x3fefa888dc3fdf3c	0.9893230726001785

bn1.bias f8 [16]
0	0xbfbfa5aaa8ac6c0c	-0.1236216222572894
1	0x3fa3f79a8db90e77	0.03899844150558079
2	0xbfbc8b4224623bec	-0.11149991405748921
3	0xbfb91fe0a27c6941	-0.09814266173308274
4	0xbfa1953a5e5ab0e5	-0.03434164430413648
5	0xbfbcae55e6ec66d9	-0.11203514945773509
6	0xbf98066574bd9bb8	-0.023461899996074925
7	0xbfa05ec6a491a00e	-0.03197308310410572
8	0xbfa6fdaad73abaff	-0.04490407826721387
9	0xbf9058fcc2cc5e56	-0.015964459790750084
10	0xbfbc05cb60d5b2e0	-0.10946341623430156
11	0xbfb5504998d7f122	-0.08325633985072448
12	0xbfa483f76224ec7d	-0.04006932328271604
13	0xbfa52764c967ab3d	-0.041316175065580364
14	0xbfb54111d621f40e	-0.0830241344246618
15	0xbfa333400d149cc1	-0.037500382992499144

bn1.running_mean f8 [16]
0	0xbfd1244a22d8a696	-0.2678399410529918
1	0xc0117be3e69ca1b0	-4.37098656016353
2	0x3feb8bb2ca29b2e0	0.8608030270093785
3	0xbffa270ce2169c31	-1.634533770711425
4	0xbfba93e6624a09c4	-0.10381927394522622
5	0x400e9e0acf03f5b6	3.8271690533717573
6	0x3fc84520fa7f6968	0.18960964423497306
7	0xc000305b2930ec0e	-2.0236113756232106
8	0x3ffaf4df3917e848	1.6847831945620033
9	0x400020af4175b314	2.015959273723988
10	0xbff6de034e52f84c	-1.4292023715529636
11	0x3febdf774a7fd963	0.8710285620752923
12	0x3fe8628dba664dec	0.7620304718606667
13	0x400aae356723173a	3.335062795408615
14	0xbff192c288ca892a	-1.0983300536541472
15	0xbfe44efe091b1a01	-0.6346426179741799
